odm/firmware/film_model.tflite (tflite, 36048 bytes, 8 tensors)

fc1/bias f4 [3]
0	0x3e1dca86	0.15409288
1	0x3bea786e	0.0071554696
2	0xbdbe3f25	-0.092893876

sequential/relu0/Relu;sequential/bn0/FusedBatchNormV3;ftr0/bias;sequential/ftr0/BiasAdd;sequential/ftr0/Conv2D f4 [8]
0	0x3e99aeb4	0.300161
1	0x3c16eb78	0.009211414
2	0x3e5223c4	0.20521456
3	0xbe476af8	-0.19474399
4	0xbe66f8a2	-0.22555783
5	0x3dfb2839	0.12263531
6	0x3def8964	0.11696127
7	0x3ec9ad69	0.39390114

sequential/relu2/Relu;sequential/bn2/FusedBatchNormV3;ftr11/bias;sequential/ftr11/BiasAdd;sequential/ftr2/Conv2D;sequential/ftr11/Conv2D f4 [32]
0	0x400c2376	2.1896644
1	0xbe9d2dee	-0.30699104
2	0xbf5e5b41	-0.8685799
3	0xbf0c3b24	-0.5477774
4	0xbfbfbc1c	-1.4979281
5	0x3f833fcd	1.0253845
6	0x3fe8a09a	1.8174012
7	0xbe65eb0a	-0.22452942
8	0x3e0a0360	0.1347785
9	0x3f507441	0.8142739
10	0x3f9107c6	1.1330497
11	0x4028e3ef	2.638912
12	0x3fbc81d8	1.4727125
13	0x3e29afb2	0.16570929
14	0x3eccd0e2	0.40003115
15	0x3f8d69a9	1.104787
16	0xbf81ebac	-1.0150046
17	0x3f0fbf29	0.5615106
18	0x3f2e0914	0.679826
19	0x3facac2f	1.3490046
20	0xbda98be8	-0.08278638
21	0x3f0b217d	0.54347974
22	0x3dc5aba0	0.096518755
23	0xbda0c71a	-0.078504756
24	0x3e2aa827	0.16665708
25	0xbf29152b	-0.66047925
26	0x3f7aa17c	0.97902656
27	0xbf33a961	-0.70180327
28	0xbe011241	-0.1260462
29	0xbf382f96	-0.7194761
30	0xbe82635c	-0.2546643
31	0xbf0f5c71	-0.5600043

sequential/activation/Relu;sequential/batch_normalization/FusedBatchNormV3;ftr2/bias;sequential/ftr2/BiasAdd;sequential/ftr2/Conv2D f4 [32]
0	0x40bddcec	5.933218
1	0x40bda468	5.926319
2	0x40dc0bff	6.8764644
3	0x40806c24	4.0132008
4	0x40eb2816	7.3486433
5	0x40c62076	6.1914625
6	0xc01248b2	-2.285687
7	0xc0251ae6	-2.5797668
8	0x408c5fdc	4.3867016
9	0x40d6b0c4	6.709078
10	0x40eb64bd	7.356047
11	0xc02f8432	-2.7424436
12	0x3fb14748	1.3849878
13	0x40a3ea20	5.1223297
14	0xc05a098e	-3.4068332
15	0xc02beb80	-2.6862488
16	0x400400c1	2.062546
17	0xc027248e	-2.6116061
18	0xc0347a10	-2.81995
19	0x40e23a18	7.0695915
20	0x40a5cf70	5.181572
21	0xc03840ac	-2.8789473
22	0x40d26ec2	6.5760202
23	0x3e669660	0.22518301
24	0x40cfd471	6.494683
25	0xc0305da2	-2.755715
26	0x3e1f4ae0	0.15555906
27	0xbef6a6d0	-0.48174143
28	0xc004f9d5	-2.0777485
29	0xc03452d6	-2.817556
30	0xbfd7b02a	-1.6850636
31	0x406beaaa	3.6861978

sequential/fc1/MatMul f4 [3, 32]
0	0xbf8ddd7e	-1.1083219
1	0xbf9c338b	-1.220323
2	0xbfbb0612	-1.4611228
3	0x3e98efc2	0.2987042
4	0xbf82fac7	-1.0232781
5	0xbfa42f4e	-1.2826936
6	0x3f4e2464	0.8052428
7	0x3f2e9809	0.6820074
8	0xbfa74257	-1.306712
9	0xbf9feeb8	-1.2494726
10	0xbfab0cb6	-1.3363254
11	0x3f8d9de6	1.1063812
12	0xbf6775b0	-0.9041395
13	0xbf8a98cb	-1.0827879
14	0x3fb260b0	1.3935757
15	0x3f6a267d	0.9146498
16	0x3eef79ab	0.46772513
17	0x3ee27250	0.4422784
18	0x3f865485	1.0494543
19	0xbf969c9d	-1.1766545
20	0xbfa47d8a	-1.2850811
21	0x3f78e47d	0.97223645
22	0xbfb21d51	-1.3915197
23	0xbece9196	-0.40345448
24	0xbfc07449	-1.5035487
25	0x3f7cb50f	0.98713773
26	0xbea4d5f7	-0.32194492
27	0x3f94be94	1.162066
28	0x3eeffe76	0.46873826
29	0x3f9510ea	1.1645787
30	0x3e4ed013	0.20196562
31	0xbe851fec	-0.26000917
32	0x3a5bc52f	0.00083835697
33	0xbe5ddf0d	-0.21667118
34	0x3e99478c	0.29937398
35	0xbf324776	-0.6964029
36	0x3eaf54b7	0.3424432
37	0xbd377b4e	-0.044795327
38	0x3e98369f	0.29729173
39	0x3f048e24	0.5177939
40	0xbef88a2c	-0.48542917
41	0x3da66ce1	0.08126236
42	0x3ec72d7e	0.38901895
43	0x3acae017	0.0015478161
44	0x3f22a7d5	0.6353734
45	0xbefc355a	-0.49259454
46	0xbf2712e4	-0.652632
47	0x3e99a6b5	0.3001
48	0xbef0b296	-0.4701125
49	0xbd3a1116	-0.04542645
50	0x3d29a7d7	0.04141983
51	0x3e93a8c1	0.28839687
52	0xbf04a92b	-0.5182063
53	0xbf3b77ff	-0.73229975
54	0xbe44ae52	-0.19207123
55	0x3f421db1	0.75826555
56	0xbe6044b8	-0.21901214
57	0x3dfc9900	0.1233387
58	0x3f53abd8	0.8268409
59	0xbf1289be	-0.5724143
60	0x3eb33fa9	0.35009506
61	0x3cbfeb0e	0.023427512
62	0x3ecfe8a9	0.40607193
63	0xbecbf9db	-0.39839062
64	0x3f58c476	0.84674776
65	0x3f4aa70b	0.7916114
66	0x3f333db8	0.7001605
67	0x3f1de1e3	0.616728
68	0x3f406201	0.7514954
69	0x3f28e642	0.65976346
70	0xbf9ee74c	-1.2414336
71	0xbf7ccba0	-0.9874821
72	0x3f65dafa	0.89787257
73	0x3f1bbdc0	0.6083641
74	0x3ed179e5	0.4091331
75	0xbfaf0784	-1.3674169
76	0xbe4deff1	-0.20111062
77	0x3f118c11	0.5685435
78	0xbf5385aa	-0.8262583
79	0xbf94b347	-1.1617211
80	0x3ec08946	0.3760473
81	0xbfb96f11	-1.448702
82	0xbf998ccc	-1.1996093
83	0x3ecb8c41	0.39755443
84	0x3f1b3f68	0.60643625
85	0xbfacf088	-1.3510904
86	0x3e5af95e	0.21384189
87	0xbf3d0646	-0.738377
88	0x3eb558e9	0.35419396
89	0xbfa0158a	-1.2506573
90	0xbecf6443	-0.4050618
91	0xbf6d9e8d	-0.92820054
92	0xbfa76425	-1.3077437
93	0xbf8a5f00	-1.0810242
94	0xbf900265	-1.1250731
95	0x3f5b224f	0.85599226

sequential/ftr0/Conv2D f4 [8, 9, 9, 1]
0	0xbb07ff47	-0.0020751522
1	0x380c3d60	3.343576e-05
2	0x3b235d56	0.0024927459
3	0xbac32976	-0.0014889676
4	0xbaa12e24	-0.0012297076
5	0x3b280d48	0.0025642682
6	0xbafbf9eb	-0.0019224262
7	0xba1c838a	-0.00059705286
8	0x3b307b80	0.002692908
9	0x3ab3823f	0.0013695433
10	0x3afb28d0	0.0019161943
11	0xbb2d6a95	-0.0026461233
12	0xbb07f1c3	-0.0020743466
13	0x3ad2b896	0.0016076739
14	0x3b09ff71	0.0021056796
15	0x3b1bf461	0.0023796784
16	0xba8209f0	-0.0009921174
17	0xbb21397e	-0.0024600918
18	0x3a0c2ed9	0.0005347557
19	0xb9b98791	-0.00035386955
20	0xb8cff90a	-9.916916e-05
21	0x3ae11145	0.0017171284
22	0xbab81d04	-0.0014046733
23	0xbb42737d	-0.0029670887
24	0xbb1bb7ff	-0.0023760793
25	0x3b0bbe71	0.0021323229
26	0xba5f7778	-0.0008524577
27	0x3a65945b	0.00087577634
28	0xbb53bc94	-0.0032308446
29	0xb84ade65	-4.8367674e-05
30	0xbb1731a9	-0.0023070371
31	0x3aba341b	0.0014206202
32	0xba9e6049	-0.0012083139
33	0x3b18639f	0.0023252738
34	0x39b82725	0.0003512438
35	0xbb76da26	-0.0037666648
36	0x3b43af3b	0.0029859084
37	0xbaf25612	-0.0018488786
38	0xbadc2ff6	-0.0016798961
39	0xba3da464	-0.0007234274
40	0x3b32e510	0.0027297176
41	0x39701b2d	0.00022898307
42	0xbb3d70b7	-0.0028906295
43	0xb98a10a2	-0.00026333804
44	0x3b5bdd23	0.0033548556
45	0xbb39c967	-0.0028348805
46	0x387c4143	6.014226e-05
47	0x3b90ac86	0.0044150976
48	0xbb6c6b46	-0.0036074682
49	0x3b1b91c1	0.0023738
50	0xbb92fae9	-0.004485477
51	0x3a4e6b93	0.0007874306
52	0x3b035918	0.0020042118
53	0xbb439d51	-0.0029848407
54	0xbabe4428	-0.0014516162
55	0xbb10962d	-0.0022062168
56	0x3addea00	0.0016930699
57	0xbb13059c	-0.0022433763
58	0x39dc2d3e	0.00041995378
59	0x38e703c5	0.000110156405
60	0x3ad576b0	0.0016285982
61	0xba356227	-0.0006919228
62	0xbb1a598d	-0.0023551912
63	0x3ab462a6	0.001376231
64	0xbaeacfa8	-0.001791467
65	0x3a856d18	0.0010179607
66	0x381e25a3	3.7705187e-05
67	0xbaf80fc7	-0.00189256
68	0x3ba345e1	0.0049826954
69	0xbba4e44c	-0.005032098
70	0x3a6e0808	0.0009080176
71	0x3b85cd59	0.0040833172
72	0x39e8e036	0.00044417538
73	0xbacbe609	-0.0015556227
74	0x3a8e20a5	0.0010843469
75	0x3b08d488	0.0020878632
76	0xbae2ff0c	-0.0017318442
77	0xbaae45dc	-0.0013295966
78	0x394771c9	0.00019020507
79	0x3a81282f	0.0009853895
80	0xbb3333ba	-0.0027344064
81	0xb74b3a38	-1.2113298e-05
82	0xb932bfb5	-0.00017046819
83	0x3a059854	0.0005096246
84	0xba8e4583	-0.0010854456
85	0xb9b22fe8	-0.000339865
86	0x3a377f6a	0.0006999882
87	0xbb0245a9	-0.0019877946
88	0xbba69389	-0.0050835055
89	0xbb070c78	-0.0020606797
90	0xbad72295	-0.0016413504
91	0x3a2bbc1d	0.00065511634
92	0xba55f5b0	-0.00081619155
93	0xb919ac2f	-0.0001465536
94	0x3a2ada44	0.00065175095
95	0x3a151e97	0.0005688457
96	0xba539a82	-0.00080720347
97	0xbb3d1a8b	-0.0028854932
98	0xba84f7be	-0.0010144634
99	0xb8e8906d	-0.000110895235
100	0x3932afd6	0.00017040907
101	0x398ab830	0.00026458642
102	0x39c7862b	0.000380562
103	0xb9c0d991	-0.00036783193
104	0xba9981d2	-0.0011711663
105	0x3a182d65	0.0005805104
106	0xba2f01e6	-0.0006676003
107	0xb961c7f1	-0.00021532156
108	0x3a7d9f9f	0.00096749695
109	0x3a927726	0.0011174425
110	0x39ef4671	0.00045638115
111	0x3a5feced	0.00085420796
112	0xba2274bb	-0.0006197204
113	0x3a999a7a	0.0011719011
114	0xba055822	-0.000508668
115	0xba8739d2	-0.0010316914
116	0xb94e1aa5	-0.00019655617
117	0x3a0e2e59	0.00054237765
118	0xba89fabd	-0.0010526996
119	0xba90eee4	-0.0011057523
120	0xb87591c2	-5.85483e-05
121	0x3832e9e2	4.2656327e-05
122	0x3ac336f3	0.0014893695
123	0xb9d1ada1	-0.0003999295
124	0x3b024e36	0.0019883043
125	0xba13a103	-0.00056315976
126	0x39ab08e7	0.00032622294
127	0xbacd76c1	-0.001567565
128	0xbaae5bbd	-0.0013302487
129	0xb9ecc660	-0.0004516123
130	0xb8e22ceb	-0.000107848864
131	0x39618860	0.00021508476
132	0xb8c2f2db	-9.295876e-05
133	0x3abffc66	0.0014647364
134	0xb9decd6d	-0.00042496194
135	0xba812513	-0.0009852968
136	0x394660b2	0.00018918773
137	0x388edd73	6.812336e-05
138	0x39238784	0.00015595375
139	0x3aad9b06	0.0013245053
140	0x3a78a956	0.0009485682
141	0xba9d40cf	-0.0011997464
142	0x3988d3d8	0.00026097777
143	0x3a8fb286	0.0010963238
144	0xb919f4ee	-0.0001468246
145	0x39f06328	0.00045850244
146	0x3aa9caa1	0.0012954065
147	0x39b803a2	0.00035097921
148	0xb980a65a	-0.00024538004
149	0xba6db391	-0.000906759
150	0xba3db9ef	-0.0007237484
151	0x3a5ee030	0.00085020345
152	0x393a21b9	0.00017750905
153	0x3a3f003a	0.00072861055
154	0x3a69a3d2	0.0008912656
155	0x398a7ed8	0.00026415917
156	0xba0c05ba	-0.00053414295
157	0xba21ec28	-0.00061768526
158	0xba08445d	-0.0005198175
159	0xb95d5ae4	-0.00021110062
160	0x3a948d5c	0.0011333632
161	0xba859298	-0.0010190783
162	0xbaf381c4	-0.0018578102
163	0xbad5ceeb	-0.0016312277
164	0xbaaf2f01	-0.0013365449
165	0x392fc1d6	0.0001676151
166	0xba07cc21	-0.0005180259
167	0x3a611638	0.00085863797
168	0x3ab8f27c	0.0014110352
169	0xba09e3a5	-0.0005260057
170	0xba3a9d8f	-0.0007118815
171	0xb7de7210	-2.6517577e-05
172	0xba9402aa	-0.0011292298
173	0x39d39bb8	0.00040361076
174	0xba445813	-0.0007489931
175	0xb9bf2406	-0.00036457198
176	0xba4fd24a	-0.0007927759
177	0xb99749e8	-0.0002885603
178	0xb9a7bd7f	-0.00031993908
179	0x3a34f82c	0.00069034356
180	0xb8b7873b	-8.7513086e-05
181	0xb8021f6e	-3.1023686e-05
182	0x397adad6	0.0002392338
183	0x3acc0835	0.0015566411
184	0x3ab30b08	0.0013659904
185	0x39c85e4b	0.00038217226
186	0xba446936	-0.00074924843
187	0xbb5f28bd	-0.0034051382
188	0xba55f93b	-0.00081624434
189	0x3a01ca7b	0.00049511314
190	0xba5f6579	-0.00085218955
191	0xba8d8f80	-0.0010800213
192	0xba5d99b8	-0.0008453387
193	0xba4a2abd	-0.0007712057
194	0x39499475	0.00019224158
195	0x3857a662	5.141495e-05
196	0x390a962d	0.0001321665
197	0xb905d275	-0.0001276227
198	0x3a98d466	0.0011659979
199	0x3a9a9988	0.0011795023
200	0x3aaaa682	0.0013019594
201	0x39f7fa9b	0.00047298227
202	0xba09c6eb	-0.00052557763
203	0x3a010472	0.0004921622
204	0x34f2df43	4.5238457e-07
205	0xb8bf92ef	-9.134958e-05
206	0x3943b5d0	0.0001866438
207	0x39ba0aa9	0.00035484627
208	0xb98f14a5	-0.00027290467
209	0x39fe724e	0.0004853182
210	0xba8365fb	-0.0010024899
211	0x367a4d6c	3.7297968e-06
212	0xb9e06891	-0.00042802517
213	0xb93fb931	-0.00018284169
214	0x396ec3ea	0.00022770432
215	0x39a78dcb	0.00031958366
216	0xb9fc0e32	-0.00048075762
217	0xba9ffefb	-0.0012206727
218	0x3a1d204a	0.0005993886
219	0xba82ed78	-0.0009988984
220	0x3a34e5ab	0.0006900678
221	0x3a1d7656	0.0006006708
222	0x39af8a04	0.0003348143
223	0x3a0e8770	0.0005437052
224	0x3a56b204	0.00081899785
225	0xb89304f4	-7.010429e-05
226	0x3a895ef6	0.0010480571
227	0x3afd5b85	0.0019329643
228	0xba3355eb	-0.0006841111
229	0x398322d5	0.0002501222
230	0x3a0cd23d	0.0005371904
231	0xb9dd28bd	-0.00042182757
232	0xbb3bff93	-0.002868627
233	0xbb4af69e	-0.003096975
234	0xbae06cd9	-0.0017122283
235	0xba7f64f9	-0.0009742524
236	0x3a8931ad	0.0010467075
237	0xb9aa6d1c	-0.0003250622
238	0x3a49ebad	0.000770266
239	0x3915f721	0.0001430181
240	0xba44314d	-0.0007484153
241	0xbba01112	-0.0048848474
242	0xbc0a0575	-0.008424153
243	0x3ac581ce	0.0015068592
244	0x3911df79	0.00013911528
245	0xbafb3ee8	-0.0019168528
246	0x3ab10e38	0.0013508266
247	0x3b452be4	0.0030085975
248	0xbb4983de	-0.0030748765
249	0x374f6453	1.236152e-05
250	0xbb623ff5	-0.0034522985
251	0x3b3c6861	0.0028748738
252	0xbaacdbd4	-0.0013188072
253	0xbacf6628	-0.0015823292
254	0x395791a7	0.00020558258
255	0xbadd96f9	-0.0016905955

sequential/ftr11/Conv2D f4 [32, 5, 5, 8]
0	0xbda5e9e7	-0.08101254
1	0x3d04aa31	0.03238887
2	0xbe18e402	-0.14930728
3	0x3e23a91b	0.15982477
4	0xbe16bf7f	-0.14721487
5	0xbdad3ab1	-0.0845846
6	0xbe10a296	-0.14124522
7	0x3de679a1	0.112536676
8	0x3dbfd7c1	0.09367324
9	0xbe5c1ab1	-0.21494557
10	0xbcaa8c22	-0.020818774
11	0x3d73371d	0.059378732
12	0xbd755967	-0.059899714
13	0x3e143397	0.14472805
14	0x3e8d46c2	0.27593046
15	0xb9f28b28	-0.00046261516
16	0xbb6fa598	-0.0036567207
17	0xbe40348f	-0.1877005
18	0x3cb60c45	0.022222647
19	0x3d937e3e	0.07201813
20	0xbe7b8292	-0.24561527
21	0xbe50bfd5	-0.20385678
22	0x3d304a87	0.043039825
23	0xbe629562	-0.22127298
24	0xbc8f3509	-0.017481344
25	0xbd91d86b	-0.071213566
26	0x3daddd1b	0.08489438
27	0x3e1dc424	0.15406853
28	0xbdb077d5	-0.08616606
29	0xbecb03e6	-0.39651412
30	0xbe0086c3	-0.12551408
31	0xbed42a75	-0.41438642
32	0x3e05d1eb	0.13068359
33	0xbe098d4d	-0.13432808
34	0xbd10e662	-0.03537596
35	0x3dbda352	0.092596665
36	0xbaf2d565	-0.0018526731
37	0xbc9b3156	-0.018944424
38	0xbde4df60	-0.11175418
39	0x3dc16bd9	0.094443984
40	0x3dbe0c5a	0.092796996
41	0x3caba47c	0.020952456
42	0x3c84a586	0.016192209
43	0x3daeabfd	0.08528898
44	0x3c477386	0.012173539
45	0x3d3d49b4	0.046212867
46	0xbdd8c529	-0.1058448
47	0x3db9bbc7	0.09069019
48	0xbefefeac	-0.49803674
49	0x3d57d6a1	0.05269492
50	0x3e4f2de1	0.20232345
51	0x3e3d684b	0.18496816
52	0x3e0a9ed8	0.13537157
53	0xbb3a0c66	-0.0028388738
54	0xbdf791ad	-0.12088332
55	0xb9913f6d	-0.0002770381
56	0xbe281e86	-0.16417894
57	0xbe0d8d91	-0.13823535
58	0xbd60d00f	-0.05488592
59	0xbdb91d42	-0.090387836
60	0xbe1f7b16	-0.15574297
61	0xbc15e176	-0.009147992
62	0xbe1bc02e	-0.1521003
63	0xbea7970b	-0.32732424
64	0xbd0ee02c	-0.034881756
65	0x3c780b55	0.0151394205
66	0xbe0bfeba	-0.13671389
67	0xbeac3137	-0.33631298
68	0xbe7950f7	-0.24347292
69	0xbe231781	-0.15926935
70	0xbc8e9761	-0.017406167
71	0xbe75e5ca	-0.24013439
72	0xbd5ec77a	-0.054389454
73	0x3e62aba8	0.22135794
74	0xbdfa3391	-0.12216867
75	0x3e46d678	0.19417751
76	0xbdefd258	-0.11710042
77	0xbe3caf31	-0.18426205
78	0x3e865b8b	0.26241717
79	0x3dbad540	0.091227055
80	0x3d7aefca	0.061263837
81	0xbc35a9c0	-0.011087835
82	0x3c32c8c2	0.010912122
83	0x3e4b87e8	0.19876063
84	0xbda85485	-0.08219246
85	0xbd88f6af	-0.06687676
86	0xbd2dbda5	-0.042417187
87	0xbe88b835	-0.2670304
88	0xbe23ac94	-0.15983802
89	0x3e229676	0.15877709
90	0xbd9c6cb1	-0.07637919
91	0x3e7c0d6a	0.24614492
92	0xbe2af9ed	-0.16696902
93	0xbd440d59	-0.04786429
94	0x3db957aa	0.09049924
95	0xbe051af8	-0.12998569
96	0x3ccb2d53	0.024801886
97	0xbd0ee9be	-0.034890883
98	0x3d9017fc	0.07035825
99	0x3e2e9577	0.17049204
100	0xbd8e12e6	-0.06937198
101	0xbd686b17	-0.056742754
102	0xbd25e761	-0.040503863
103	0xbea18839	-0.31549242
104	0xbe0e08fa	-0.13870612
105	0xbe563907	-0.20920192
106	0x3eaa885a	0.33307153
107	0xbd805e84	-0.062680274
108	0xbe679499	-0.2261528
109	0xbf1e081b	-0.6173112
110	0xbdaa8a9a	-0.083272174
111	0xbedfd823	-0.43719587
112	0xbc9bac42	-0.019003037
113	0xbe9691f2	-0.29408222
114	0x3e932543	0.28739366
115	0x3e8df7fc	0.2772826
116	0x3c6d4cc1	0.014483632
117	0xbea67185	-0.32508484
118	0xbc295aef	-0.010336622
119	0xbe9b8b02	-0.30379492
120	0xbd6ffe75	-0.05859228
121	0x3d7429de	0.05961024
122	0xbd562e5b	-0.0522903
123	0x3e32a100	0.17444229
124	0x3eabc115	0.33545747
125	0x3d40cd52	0.04707081
126	0x3e8e9ed4	0.2785555
127	0x3d13e8dc	0.036110744
128	0xbe39e807	-0.18154918
129	0x3e737a86	0.23777208
130	0xbe91a6a6	-0.28447455
131	0xbbc30408	-0.0059514083
132	0x3d424617	0.047430124
133	0x3de53fa0	0.11193776
134	0x3e8d0ef7	0.2755048
135	0xbe0bb22e	-0.13642189
136	0xbe8a470e	-0.27007335
137	0x3ca87a34	0.020566083
138	0x3e72167b	0.23641388
139	0xbe1153ac	-0.14192075
140	0xbed78163	-0.42090902
141	0xbd012c53	-0.03153641
142	0x3db91b62	0.09038426
143	0xbef5f665	-0.48039547
144	0xbb97ae29	-0.004628916
145	0xbd1c59af	-0.038171466
146	0xbca92e6e	-0.020652022
147	0x3e1a3069	0.1505753
148	0x3cfdbe94	0.030974664
149	0xbf0e277f	-0.55529016
150	0xbc475130	-0.012165353
151	0xbdfe6837	-0.12422221
152	0xbdd314d9	-0.10306711
153	0xbe5843a3	-0.21119551
154	0x3da4ad26	0.08040838
155	0xbcf3d269	-0.029763417
156	0xbdfbafc4	-0.12289384
157	0xbe3e2814	-0.18569976
158	0x3d306d67	0.043073084
159	0xbe5d49b2	-0.21610144
160	0x3e92e51e	0.28690428
161	0xbd8d6e7d	-0.069058396
162	0xbc9695c5	-0.018381963
163	0xbd96ba06	-0.073597
164	0x3d1bbc83	0.038021576
165	0xbd524a3e	-0.051340334
166	0x3dce1563	0.10062673
167	0xbe28163a	-0.16414729
168	0x3db475b4	0.088115126
169	0x3da59b19	0.08086223
170	0xbe4f8522	-0.2026563
171	0x3d60c2ac	0.054873154
172	0x3e7533fb	0.2394561
173	0x3d980cff	0.07424354
174	0xbe1c5a79	-0.15268888
175	0xbdb23ec2	-0.08703376
176	0xbe861bc5	-0.2619306
177	0xbdfccc56	-0.123436615
178	0xbb5d0631	-0.0033725614
179	0xbe35e76d	-0.17764063
180	0x3d804e96	0.06264989
181	0x3d203e28	0.039121777
182	0x3e2a5c25	0.16636713
183	0xbe600726	-0.21877727
184	0xbe000748	-0.12502778
185	0x3d635d67	0.055508997
186	0xba37769b	-0.00069985696
187	0xbe8bb6fc	-0.27288043
188	0xbe0772ec	-0.13227433
189	0xbeb96cd4	-0.36215842
190	0xbe5e121e	-0.21686599
191	0xbd746326	-0.059664868
192	0x3d686a50	0.056742013
193	0x3d9c775f	0.07639956
194	0xbe319c2a	-0.17344728
195	0x3e875934	0.26435244
196	0x3d1e1bd3	0.038600754
197	0xbea1871d	-0.31548396
198	0xbe3ca2e5	-0.18421514
199	0x3e04bedd	0.12963434
200	0xbd756eb2	-0.05992002
201	0x3caef0eb	0.021355113
202	0x3e6d280f	0.23159812
203	0x3e7cbc19	0.24681129
204	0xbcb382f2	-0.021913026
205	0x3d81fb46	0.06346755
206	0xbe0fc8fd	-0.14041515
207	0xbd5ecfa0	-0.054397225
208	0x3e333b00	0.17502975
209	0x3d2cc867	0.042183306
210	0x3ea1e73f	0.3162174
211	0xbebacc45	-0.3648397
212	0x3de1ff63	0.11035039
213	0xbd03fd9d	-0.032224286
214	0xbe0bd6d7	-0.13656174
215	0x3c723baf	0.0147847375
216	0x3c30a933	0.010782528
217	0xbe8e50e2	-0.27796084
218	0xbe8e91cd	-0.27845612
219	0xbcb3d4ff	-0.02195215
220	0x3e3101c6	0.17285833
221	0xbcaff589	-0.021479385
222	0xbdcf44d1	-0.101205476
223	0x3e3fa0e7	0.18713723
224	0xbda840a9	-0.08215458
225	0xbd3c9126	-0.04603686
226	0x3de9030e	0.11377536
227	0xbe40a20e	-0.18811819
228	0xbd3677df	-0.04454791
229	0x3e24ea80	0.1610508
230	0x3db5404f	0.088501565
231	0xbea95c4a	-0.33078223
232	0xbdc862ce	-0.097844705
233	0x3e202d15	0.15642197
234	0xbd9183e1	-0.07105232
235	0x3cf48374	0.029847838
236	0x3cf4dc92	0.029890332
237	0x3d5f69f7	0.054544415
238	0x3e40a6bb	0.18813603
239	0xbd8d26af	-0.06892144
240	0xbb722e94	-0.0036954032
241	0x3d9fb16d	0.07797513
242	0xbd20c137	-0.039246764
243	0x3cbc02b9	0.022950517
244	0xbe1b3eef	-0.15160726
245	0x3bf69d28	0.0075260587
246	0xbd2cb118	-0.042161077
247	0x3e9164db	0.2839726
248	0xbeb7e74e	-0.3591866
249	0xbe8a641e	-0.27029508
250	0xbde095ff	-0.109661095
251	0xbf32228c	-0.69583964
252	0xbc7e9072	-0.015537368
253	0x3e814b36	0.25252694
254	0xbd5fe39e	-0.054660432
255	0x3eed2d1d	0.4632348

sequential/ftr2/Conv2D f4 [32, 1, 1, 32]
0	0xbf2c359d	-0.6726931
1	0xbf899e76	-1.0751483
2	0x3e8d6ae5	0.27620617
3	0xbe886fd6	-0.26647824
4	0xbf38f3e9	-0.7224718
5	0xbf47fa99	-0.78116757
6	0xbf7137c0	-0.9422569
7	0xbf8c1db8	-1.094657
8	0xbd2bcb26	-0.041941784
9	0xbfd8f75e	-1.695049
10	0xbf9a1e4b	-1.2040495
11	0x3fa76c8d	1.3080002
12	0x3f43b684	0.7645037
13	0xbf0f9084	-0.5607989
14	0xbf90dddf	-1.131771
15	0xbfe2b3fe	-1.7711179
16	0xbf17145a	-0.5901543
17	0x3d1840f4	0.03717132
18	0xbfa740a6	-1.3066604
19	0xbf2fb3fb	-0.68634003
20	0xbf1c99a8	-0.6117196
21	0xbea225e2	-0.31669527
22	0xbf1fada5	-0.62374336
23	0xbd9eef22	-0.07760455
24	0xbf1d7c74	-0.61518025
25	0xbedafb07	-0.42769644
26	0x3cc7aceb	0.024374446
27	0xbf95a0bb	-1.1689676
28	0xbf1c5f9c	-0.6108339
29	0xbf4e26de	-0.80528057
30	0xbef24ddd	-0.4732503
31	0xbe8d8ef5	-0.2764813
32	0xbf1d0a58	-0.6134391
33	0xbf8157a2	-1.0104868
34	0x3f1d7a5f	0.6151485
35	0xbec04b25	-0.3755733
36	0xbf3b3db1	-0.7314101
37	0xbf3b11c0	-0.7307396
38	0xbf8e1d03	-1.1102604
39	0xbf2e9255	-0.68192035
40	0xbe4a2b14	-0.19742996
41	0xbffe5845	-1.9870688
42	0xbf8a24c6	-1.0792472
43	0x3fa3c0af	1.2793177
44	0x3f2d7855	0.6776174
45	0xbf05b1b2	-0.52224267
46	0xbfbee5a5	-1.4913832
47	0xbfba7611	-1.4567281
48	0xbf273603	-0.6531679
49	0xbf34e051	-0.7065478
50	0xbfaffb81	-1.3748628
51	0xbeba78aa	-0.36420184
52	0xbf52cd79	-0.82344776
53	0xbe312726	-0.1730009
54	0xbf1c3f10	-0.61033726
55	0xbe7d6abb	-0.24747746
56	0xbf507f6c	-0.8144443
57	0xbf07d127	-0.53053516
58	0x3de0e2a8	0.10980731
59	0xbf33d3ea	-0.7024523
60	0xbe9d5bff	-0.3073425
61	0xbf50b505	-0.81526214
62	0xbf0dcf28	-0.5539422
63	0xbea7cea1	-0.32774833
64	0xbfb2e3b8	-1.3975744
65	0xbf8e5c6e	-1.1121957
66	0xbdf54611	-0.11976255
67	0xbf4fd6f1	-0.8118735
68	0xbf833aa9	-1.0252277
69	0xbf000eda	-0.5002266
70	0xbf639b6b	-0.88909024
71	0xbfc36ac7	-1.5266961
72	0x3d927f1c	0.071531504
73	0xbfaa943f	-1.3326491
74	0xbf3649d8	-0.71206427
75	0x3f9786a0	1.1837959
76	0x3d1b5d56	0.03793081
77	0x3de78eaf	0.113065116
78	0xc002dc69	-2.0447028
79	0xbfaa2c2b	-1.3294729
80	0xbf5f7c77	-0.87299293
81	0x3f28a7f7	0.65881294
82	0xc00b0e16	-2.1727347
83	0xbf9c7a5a	-1.2224839
84	0xbf95daa7	-1.1707352
85	0xbf63f559	-0.89046246
86	0xbf5f37fa	-0.8719479
87	0x3f462a2d	0.77408105
88	0xbde0d8d9	-0.109788604
89	0x3e2814c9	0.16414179
90	0x3f92ef18	1.1479216
91	0x3a775c52	0.0009436059
92	0xbfb765eb	-1.4327978
93	0xbfa91caf	-1.3211879
94	0xbf3364a6	-0.7007545
95	0xbfa225e7	-1.2667817
96	0xbe3c1f4e	-0.18371317
97	0xbf942977	-1.1575154
98	0x3f8e1412	1.1099875
99	0xbda71006	-0.08157353
100	0xbef6e2ec	-0.48220003
101	0xbf378c88	-0.7169881
102	0xbfbc35cd	-1.4703919
103	0x3e8e47ba	0.27789098
104	0xbf8f4e85	-1.1195837
105	0xbf88c967	-1.0686463
106	0xbe6a7fbe	-0.22900292
107	0x3eb069cc	0.34455717
108	0x3e7ca922	0.24673894
109	0xbf9e68d4	-1.2375741
110	0xbf08295a	-0.531881
111	0xbf761b95	-0.96135837
112	0xbee29c8d	-0.44260064
113	0xbf381b34	-0.7191651
114	0x3e9e200f	0.30883834
115	0x3ebb6ff4	0.3660885
116	0xbea4db1a	-0.3219841
117	0x3e4c455a	0.1994833
118	0xbf48f99d	-0.7850588
119	0xbf53d890	-0.82752323
120	0xbf7674f5	-0.9627221
121	0xbf6deae4	-0.9293654
122	0xbe014191	-0.12622668
123	0xbf0f2794	-0.55919766
124	0xbc991279	-0.018685566
125	0xbf98d9b8	-1.1941442
126	0xbf533070	-0.82495785
127	0x3e9978ea	0.29975063
128	0xbf8f64b2	-1.1202605
129	0xbfa5752c	-1.2926383
130	0x3e089ba3	0.1334062
131	0xbf258332	-0.64653313
132	0xbf9639b3	-1.1736358
133	0xbede0e62	-0.43370348
134	0xbf8d53ba	-1.1041176
135	0xbfc02f9e	-1.5014532
136	0x3df3ae0e	0.11898433
137	0xbfe5a8c9	-1.7942134
138	0xbf3a3ce2	-0.7274915
139	0x3fa0c8a3	1.256123
140	0x3e3dff2a	0.18554369
141	0xbe5aabcc	-0.21354598
142	0xbffa8382	-1.9571383
143	0xbfd0a2a6	-1.6299636
144	0xbf3f20a4	-0.7465918
145	0x3f13e904	0.5777743
146	0xc016004d	-2.3437684
147	0xbf94ea2a	-1.1633961
148	0xbfa21988	-1.2664042
149	0xbf606bd2	-0.8766452
150	0xbf2a2111	-0.66456705
151	0x3efea2c3	0.49733552
152	0xbe055bc4	-0.13023287
153	0xbe546ad7	-0.20743881
154	0x3f817de8	1.0116549
155	0xbebdb63e	-0.37053102
156	0xbfc926c5	-1.5714957
157	0xbfa372fa	-1.2769463
158	0xbf2ec3e9	-0.68267685
159	0xbf812eb7	-1.0092381
160	0xbf2b0999	-0.6681152
161	0xbf761bca	-0.9613615
162	0x3e4a3c6f	0.19749616
163	0xbee4b1ac	-0.44666803
164	0xbf392afd	-0.7233122
165	0xbeefa37a	-0.4680441
166	0xbf8741df	-1.0566977
167	0xbf1bd94c	-0.60878444
168	0xbddc1cc0	-0.10747671
169	0xbfbf1258	-1.4927473
170	0xbf7452b0	-0.9543867
171	0x3f75df03	0.96043414
172	0x3edc0f31	0.4298034
173	0xbec5b5b2	-0.38615185
174	0xbfe5987b	-1.7937158
175	0xbfbeb02b	-1.4897512
176	0xbf6d05ce	-0.9258698
177	0x3e3a71a1	0.18207408
178	0xbfdaa1c5	-1.7080618
179	0xbf2755e9	-0.65365463
180	0xbf73b85a	-0.95203173
181	0xbf0ac664	-0.5420897
182	0xbf099e06	-0.5375675
183	0x3dc572d2	0.09641041
184	0xbf3c183c	-0.7347448
185	0xbeea0290	-0.4570508
186	0x3e9de962	0.3084212
187	0xbf8cfc7d	-1.1014553
188	0xbf3f600e	-0.7475594
189	0xbf027492	-0.5095912
190	0xbf71a75d	-0.94396
191	0xbd43c69d	-0.047796834
192	0x3f68ee89	0.90988976
193	0x3f3bf4d8	0.73420477
194	0x3e92a5a3	0.28641996
195	0x3fe7236b	1.8057684
196	0xbddf76bc	-0.10911319
197	0x3f9f304b	1.2436613
198	0x3eb92b3e	0.36165804
199	0x3ee681e0	0.45020962
200	0x3fc5c138	1.5449591
201	0x3f70352e	0.93831146
202	0x3ed187d5	0.40923944
203	0xbf8c4aa9	-1.0960284
204	0xbfeabee2	-1.8339503
205	0x4002375c	2.0346289
206	0xbeea40dc	-0.4575261
207	0xbe59d4da	-0.21272603
208	0x3f110dab	0.5666148
209	0x3f7d47d0	0.989377
210	0xbd84acaf	-0.06478249
211	0xbee93b62	-0.45553118
212	0x3eede85f	0.46466348
213	0xbe86851d	-0.26273432
214	0x3eff6fd6	0.49890012
215	0x3fc4871b	1.5353731
216	0x3e08cb36	0.13358769
217	0x3f58af0d	0.84642106
218	0xbf0c4631	-0.54794604
219	0xbe431327	-0.19050275
220	0x3f8f6ac4	1.1204457
221	0x3f877219	1.0581695
222	0x3f52fa3b	0.8241307
223	0x3f1aa63c	0.60409904
224	0x3e8299ce	0.2550797
225	0x3f554f56	0.8332418
226	0xbddcc0e5	-0.10778979
227	0x3f513aab	0.81730145
228	0x3e9a90d0	0.30188608
229	0x3f7a9c38	0.9789462
230	0x3f7440a3	0.9541113
231	0x3ef0072b	0.4688047
232	0x3f9ae5a1	1.2101327
233	0xbe93cce8	-0.2886727
234	0x3fa2ba32	1.2713072
235	0xbf60f562	-0.87874424
236	0xbf7064a3	-0.9390356
237	0x3f45e35e	0.7730006
238	0x3ece3b55	0.40279642
239	0xbeb959f1	-0.36201432
240	0x3f5993eb	0.8499133
241	0x3fa8068c	1.3126998
242	0xbef56727	-0.47930261
243	0xbf9fa192	-1.2471182
244	0x3e1e8f25	0.15484293
245	0x3d4de258	0.050264686
246	0x3eafec45	0.34359947
247	0x3fdec34e	1.7403352
248	0x3f50dbc6	0.8158535
249	0x3f976f75	1.1830889
250	0x3e6f5e19	0.23375739
251	0x3e536b3d	0.20646377
252	0x3ea7cd63	0.32773885
253	0x3fa638a9	1.2986041
254	0x3f89555d	1.0729176
255	0x3daf8fa5	0.0857232
