odm/firmware/glove_model.tflite (tflite, 10588 bytes, 8 tensors)

fc1/bias f4 [2]
0.16677251 -0.16677262
00000000: 6ac6 2a3e 71c6 2abe

sequential_1/relu0/Relu;sequential_1/bn0/FusedBatchNormV3;ftr0/bias;sequential_1/ftr0/BiasAdd;sequential_1/ftr1/Conv2D;sequential_1/ftr0/Conv2D f4 [8]
-0.0145544475 0.18116248 -0.2935808 -0.3434299 -0.09899957 -0.45122594 -0.031932693 -0.026559254
00000000: c775 6ebc a882 393e 3950 96be 0bd6 afbe
00000010: 49c0 cabd 1607 e7be dbcb 02bd cb92 d9bc

sequential_1/relu1/Relu;sequential_1/bn1/FusedBatchNormV3;ftr1/bias;sequential_1/ftr1/BiasAdd;sequential_1/ftr1/Conv2D f4 [8]
0.69551075 0.09522143 0.1129287 0.055226833 -0.10715327 0.08278818 0.105747774 -0.13609226
00000000: fe0c 323f 7403 c33d 2a47 e73d 8835 623d
00000010: 2c73 dbbd d98c a93d 4a92 d83d c55b 0bbe

sequential_1/activation/Relu;sequential_1/batch_normalization/FusedBatchNormV3;ftr2/bias;sequential_1/ftr2/BiasAdd;sequential_1/ftr2/Conv2D f4 [16]
1.2218875 -1.9772074 -1.739147 -1.6402948 2.4657426 -1.881285 -2.276686 -1.6946461
0.9667638 -1.3145567 -1.6988647 3.4054277 -0.9327188 -0.979232 -1.4039147 2.1287699
00000000: cf66 9c3f 2215 fdbf 5e9c debf 2ef5 d1bf
00000010: bace 1d40 f2cd f0bf 39b5 11c0 2aea d8bf
00000020: d57d 773f 6543 a8bf 6674 d9bf 87f2 5940
00000030: a9c6 6ebf f3ae 7abf 7ab3 b3bf c43d 0840

sequential_1/fc1/MatMul f4 [2, 16]
1.4785888 -1.5411167 -1.2302184 -1.9428607 1.0298084 -1.6094683 -1.8737844 -1.7658148
0.9466968 -1.682419 -1.4891804 0.75594544 -1.7165396 -1.5193846 -2.0691335 1.2304213
-1.5359678 1.4439199 1.887354 1.099506 -1.2915068 1.2583342 1.498995 2.0183878
-1.234228 1.5203844 1.6862736 -0.68235224 1.7795584 1.4899095 1.5783029 -0.8581236
00000000: 6642 bd3f 5043 c5bf cc77 9dbf a9af f8bf
00000010: c3d0 833f 0f03 cebf 2bd8 efbf 3806 e2bf
00000020: b95a 723f 8159 d7bf 779d bebf a485 413f
00000030: 92b7 dbbf 327b c2bf af6c 04c0 727e 9d3f
00000040: 989a c4bf 5ed2 b83f d194 f13f 9dbc 8c3f
00000050: 1850 a5bf 1811 a13f 11df bf3f 442d 0140
00000060: 2ffb 9dbf f59b c23f d0d7 d73f a3ae 2ebf
00000070: 92c8 e33f 5bb5 be3f d405 ca3f fdad 5bbf

sequential_1/ftr0/Conv2D f4 [8, 3, 3, 1]
0.004419773 -0.009795274 -0.007893175 0.008404077 -0.005784762 -0.010587554 0.0020138503 0.005966444
0.00046262378 -0.004698824 -0.0030845192 0.002044398 -0.009345294 -0.005751053 0.005481188 -0.006327201
-0.003790892 0.004450407 -0.0024769532 -4.7438138e-05 0.0018595799 -0.0013303952 0.004598365 0.0032538292
0.004816644 0.006304061 -0.0014071837 0.006511928 0.0011430071 -0.010011703 -0.00074711046 0.007170537
-0.007388112 -0.018758032 0.019912656 0.0010907935 0.0036897748 0.01835846 0.002191011 -0.011956246
-0.018244874 -0.009277808 0.015241204 0.0037152222 0.0031897484 -0.00992687 0.006214022 -0.011651069
-0.0043862085 0.025104152 -0.0017618546 0.008067632 -0.015736058 -0.011660355 0.003233953 0.00821082
0.008241832 -0.003691767 -0.0021956197 -0.0043662153 -0.00421613 -0.002933797 -0.008146323 -0.0011715769
-0.008873997 0.0028837163 0.018045412 0.004001234 0.013922705 -0.00814578 -0.0067349677 -0.003648951
00000000: bed3 903b 5b7c 20bc 6052 01bc 41b1 093c
00000010: 1a8e bdbb 6c77 2dbc cdfa 033b 2982 c33b
00000020: 508c f239 98f8 99bb a525 4abb 4ffb 053b
00000030: 011d 19bc 5473 bcbb 8a9b b33b 6954 cfbb
00000040: 9d70 78bb b8d4 913b 6154 22bb 50f8 46b8
00000050: 26bd f33a a860 aeba e2ad 963b 323e 553b
00000060: f0d4 9d3b 4c92 ce3b 4071 b8ba 0362 d53b
00000070: f4d0 953a 2008 24bc bcd9 43ba d3f6 ea3b
00000080: fa17 f2bb 72aa 99bc de1f a33c f5f8 8e3a
00000090: 26d0 713b 7b64 963c 1197 0f3b 21e4 43bc
000000a0: 4676 95bc f201 18bc 3eb6 793c 167b 733b
000000b0: 190b 513b 50a4 22bc ff9e cb3b 20e4 3ebc
000000c0: 2fba 8fbb 39a7 cd3c 08ee e6ba 1a2e 043c
000000d0: e8e8 80bc 130b 3fbc baf0 533b ad86 063c
000000e0: c008 073c 93f1 71bb 63e4 0fbb 7812 8fbb
000000f0: 7627 8abb f244 40bb 2878 05bc 998f 99ba
00000100: 3e64 11bc bbfc 3c3b f9d3 933c c91c 833b
00000110: 0f1c 643c e175 05bc 01b1 dcbb 3d23 6fbb

sequential_1/ftr1/Conv2D f4 [8, 3, 3, 8]
-0.06759904 0.09991711 -0.22387011 -0.086892866 -0.17409462 0.11962615 -0.12805246 0.13156591
0.01564957 -0.12666243 -0.07296556 0.14403506 0.071110316 0.121638715 -0.25209233 -0.27519283
0.027277464 -0.29864508 0.17961323 0.013040699 -0.05916058 0.19598413 -0.20726028 -0.15062256
-0.060562924 0.027404353 -0.2279413 0.14449745 -0.07881612 0.16275477 -0.17117222 0.012920955
-0.07445484 -0.10696108 -0.1109354 0.04700946 -0.15363887 -0.013401411 -0.2310475 -0.042877227
-0.010376004 -0.0577384 0.01721053 0.0004184683 -0.044662405 0.12832856 -0.35723877 -0.268713
0.007806336 0.014234314 -0.11877456 0.34465316 0.2177355 0.24441248 0.004889532 0.005333674
-0.10437795 -0.17843373 -0.46568716 -0.1849701 -0.4134378 0.022214588 -0.2807685 -0.036851607
0.05545674 -0.3548516 -0.32176572 0.021975387 0.15804158 0.0074577024 -0.54826635 0.04984373
0.03162616 0.056889202 -0.20614752 -0.12575786 -0.11076521 -0.110897355 -0.06479143 -0.10492893
0.12770818 0.25232485 0.05717617 -0.10902465 -0.115508 -0.027669018 -0.03532859 0.019915052
0.20855236 0.21588436 0.0014892392 0.11513568 -0.15238976 0.13124952 -0.051972598 0.00091947854
0.07466143 0.17981549 0.061042476 -0.1232699 -0.20767 0.08645021 -0.19792822 -0.14832693
0.13894434 -0.02618023 0.12563433 0.0077509223 -0.04160359 -0.26919064 -0.36431855 -0.07761535
-0.22519405 0.1334582 0.08259234 -0.021814192 -0.054541826 0.10425924 0.012625585 -0.20249909
0.031978477 0.20266475 0.2045114 -0.24560596 -0.28470042 -0.037230432 0.07561346 -0.20023695
0.03305838 -0.013495764 0.01708655 0.025873438 0.14371139 -0.33612108 -0.136707 -0.10586005
-0.23861106 -0.1116206 0.04892056 -0.14841965 -0.05329598 -0.03553522 -0.12543967 0.06414731
-0.1145011 -0.12000995 -0.18894172 -0.12831949 -0.037074912 -0.21679252 -0.0733611 -0.05465781
-0.041962117 -0.07544435 0.15178688 -0.09439444 -0.3411638 -0.08626792 -0.14764167 -0.10498769
0.21321025 0.14476253 0.25900355 -0.0879379 0.028283421 -0.14148782 -0.17558607 -0.19277371
0.079006225 -0.09839478 -0.124817766 0.020712432 0.02457557 0.083852015 0.14567953 0.17253885
-0.10584059 0.31732404 0.17661577 0.22458349 0.21320698 0.12120638 -0.18037973 -0.16222255
-0.10348084 0.14875332 0.12848027 -0.21423282 -0.23570274 -0.19084132 -0.35349864 -0.24461961
0.16932066 0.07045207 -0.41885436 -0.12734462 0.15477543 0.13229355 0.13693984 0.13431348
0.3642673 -0.15445517 0.030896157 0.16056545 0.20094268 0.16567455 -0.017247656 -0.050494514
-0.32091102 -0.0794437 0.098033056 -0.35284004 -0.59426904 -0.1467763 0.009350022 -0.14534774
0.15298803 0.32893795 0.11112398 -0.01265355 -0.052561276 0.1464898 0.08304233 -0.25170362
-0.10100109 -0.09839894 0.113242336 -0.16034617 -0.0048350473 0.063100755 -0.0033259245 -0.036018252
-0.20036243 -0.24762937 0.13025925 -0.12288773 0.09955086 -0.033634905 -0.13012709 0.08565175
0.14034861 0.36123013 0.15912211 0.07504505 0.080144465 -0.1362978 0.17279463 -0.32555577
-0.17035411 -0.037288226 -0.019073492 0.018326465 0.010581197 -0.029614966 -0.16735168 0.0030687253
00000000: 5e71 8abd 57a1 cc3d 353e 65be e3f4 b1bd
00000010: dc45 32be 8efe f43d 2f20 03be 37b9 063e
00000020: 8733 803c ccb3 01be f86e 95bd ed7d 133e
00000030: 49a2 913d b81d f93d 3f12 81be 13e6 8cbe
00000040: fd74 df3c 02e8 98be 88ec 373e a8a8 553c
00000050: 5d52 72bd 10b0 483e 0a3c 54be cd3c 1abe
00000060: d410 78bd 187f e03c 7269 69be 24f7 133e
00000070: 596a a1bd 30a9 263e c547 2fbe 6ab2 533c
00000080: c77b 98bd 690e dbbd 1932 e3bd fe8c 403d
00000090: 8253 1dbe 9791 5bbc b797 6cbe 08a0 2fbd
000000a0: 1d00 2abc 1a7f 6cbd 19fd 8c3c dd65 db39
000000b0: edef 36bd 9068 033e 00e8 b6be c094 89be
000000c0: 4bcc ff3b 0a37 693c 1440 f3bd 6176 b03e
000000d0: 0ef6 5e3e 4447 7a3e 5e38 a03b 1ac6 ae3b
000000e0: 1bc4 d5bd 55b7 36be 8c6e eebe cd68 3dbe
000000f0: 1fae d3be 5efb b53c e4c0 8fbe b6f1 16bd
00000100: 9b26 633d 1caf b5be 7abe a4be ba05 b43c
00000110: a7d5 213e be5f f43b 2f5b 0cbf f028 4c3d
00000120: 6f8a 013d a704 693d 5618 53be abc6 00be
00000130: dfd8 e2bd 271e e3bd 5fb1 84bd fbe4 d6bd
00000140: efc5 023e b930 813e 8f31 6a3d 5148 dfbd
00000150: 758f ecbd 23aa e2bc b6b4 10bd e424 a33c
00000160: c08e 553e ca10 5d3e 9332 c33a 41cc eb3d
00000170: 100c 1cbe 4666 063e 38e1 54bd 2909 713a
00000180: 18e8 983d 8d21 383e ad07 7a3d ee74 fcbd
00000190: 72a7 54be cf0c b13d b2ad 4abe 04e3 17be
000001a0: 6d47 0e3e ec77 d6bc 49a6 003e 73fb fd3b
000001b0: 8768 2abd 5bd3 89be f687 babe ccf4 9ebd
000001c0: 4599 66be 44a9 083e 2c26 a93d adb3 b2bc
000001d0: 4067 5fbd de85 d53d 8bdb 4e3c ec5b 4fbe
000001e0: ddfb 023d 5987 4f3e 706b 513e 2180 7bbe
000001f0: 41c4 91be f07e 18bd 3bdb 9a3d ea0a 4dbe
00000200: 3968 073d 561d 5dbc 18f9 8b3c 88f4 d33c
00000210: 1429 133e 1018 acbe ebfc 0bbe 27cd d8bd
00000220: 7556 74be 5799 e4bd ed60 483d 52fb 17be
00000230: e34c 5abd 618d 11bd 4273 00be aa5f 833d
00000240: 8d7f eabd c7c7 f5bd f079 41be 2f66 03be
00000250: dddb 17bd dcfe 5dbe 583e 96bd dee0 5fbd
00000260: 78e0 2bbd 9182 9abd 056e 1b3e df51 c1bd
00000270: 06ad aebe 3cad b0bd 612f 17be c903 d7bd
00000280: ca53 5a3e a13c 143e 1d9c 843e c918 b4bd
00000290: a2b2 e73c 2fe2 10be d6cc 33be 7966 45be
000002a0: 04ce a13d 3483 c9bd 75a0 ffbd 1ead a93c
000002b0: b552 c93c 9bba ab3d 042d 153e 06ae 303e
000002c0: f4c2 d8bd 4c78 a23e c4da 343e 37f9 653e
000002d0: ee52 5a3e 0d3b f83d 77b5 38be ab1d 26be
000002e0: c3ed d3bd ca52 183e 5590 033e d95f 5bbe
000002f0: 0f5c 71be e86b 43be c6fd b4be 907d 7abe
00000300: 6562 2d3e 2d49 903d 1474 d6be a166 02be
00000310: 737d 1e3e f677 073e f539 0c3e 7989 093e
00000320: 3e81 ba3e 7f29 1ebe f019 fd3c 456b 243e
00000330: ebc3 4d3e 97a6 293e f54a 8dbc 56d3 4ebd
00000340: 734e a4be 61b3 a2bd 8ec5 c83d 73a7 b4be
00000350: 0422 18bf 874c 16be d630 193c 0ad6 14be
00000360: e5a8 1c3e 8e6a a83e f894 e33d d650 4fbc
00000370: 7e4a 57bd 6c01 163e 1912 aa3d 4cdf 80be
00000380: a9d9 cebd 6285 c9bd 99eb e73d c931 24be
00000390: 516f 9ebb f83a 813d c1f7 59bb e087 13bd
000003a0: cf2b 4dbe 8e92 7dbe ae62 053e 90ac fbbd
000003b0: 52e1 cb3d c1c4 09bd 0940 05be 2f6a af3d
000003c0: 8cb7 0f3e 28f3 b83e e8f0 223e 38b1 993d
000003d0: c822 a43d a791 0bbe 13f1 303e 3faf a6be
000003e0: 4f71 2ebe 8abb 18bd 0340 9cbc 6221 963c
000003f0: c25c 2d3c 169b f2bc 3d5e 2bbe ab1c 493b

sequential_1/ftr2/Conv2D f4 [16, 3, 3, 8]
1.3821182 0.33741456 0.7534228 0.39931178 0.26374844 0.16653077 0.8489655 0.24961665
1.9359053 0.64323336 0.8692719 0.34401685 0.5969048 0.7093952 0.83116406 -0.35502267
1.212147 0.43039486 -0.7951829 -0.3308096 0.45139268 0.13144267 0.70165247 0.055903073
0.8109825 -0.30635458 0.534184 0.30720365 -0.09791562 0.03887529 -0.37713325 -0.2335816
-0.5382766 0.2300199 0.9440418 0.4039256 -0.1004081 0.22309287 0.64026153 -0.23350659
0.88978183 -0.1720827 0.22356819 0.35530993 -0.14330778 -0.053044386 0.29386604 0.07686489
-2.9680977 0.582644 -0.79376304 -0.8145533 -0.53519577 0.040385276 -0.30792326 0.20489568
-3.4457996 -0.33677557 -1.3329239 -1.0477002 0.21523596 -0.20848446 -0.026524134 0.43598047
-4.396775 -0.64502007 -1.6297652 0.3544371 0.5056193 0.06965098 0.12443117 -0.081132494
0.29048505 0.079819605 -1.0195438 0.2823079 0.2942264 -0.7248397 -0.9606606 -0.16970637
0.021830635 -0.10680254 -0.20092118 0.3378059 -0.6300798 -0.345302 0.8149951 0.53143376
0.19145606 -0.13336992 -0.29305068 0.7635204 1.1696 0.37941253 -0.20239113 -0.77289563
0.13841966 0.62911576 -1.0024627 -0.86803705 -0.13846461 -0.7456827 0.45594788 0.5776458
-0.15853602 0.49597108 0.7715685 0.76885784 1.2777883 0.7758237 0.67392564 0.604623
0.14788105 -0.13160653 0.13577385 0.40632463 -0.62946755 0.10539487 -0.11339053 0.6026258
0.03664435 0.15820001 -0.73095965 -0.16789533 0.17397514 -0.19212005 -0.19521897 0.53739995
0.48399904 -0.052198075 1.3763242 0.6250816 1.0289189 0.9814001 0.9934911 1.4541777
1.1082542 -0.1641531 0.35900906 0.14663637 0.88664454 0.72964835 0.8755839 1.5227338
-0.15723737 1.0247569 0.016460553 0.0033894302 0.9157647 2.0967474 0.8624416 0.064180076
-0.8020588 0.25291187 0.3895977 0.9564814 0.58865917 1.0846503 1.246928 0.73995763
0.10788387 -1.6359817 -0.07191368 0.8496634 -0.59714025 1.0404853 0.18822777 0.69132644
0.16200033 0.05088506 -0.37305135 -0.6456315 0.23534523 -1.1102215 0.7025017 -1.1835856
0.28507495 0.6907496 -0.58554244 0.039318405 0.033583824 -0.13869654 0.6025761 0.47022054
0.51633286 -0.34865174 0.50632864 0.9159742 -0.2853942 0.89238304 0.29720992 0.6227972
-0.05182801 0.015964765 -0.9291938 -0.039663397 -1.4988221 -0.8632394 0.90013903 -1.1193999
-1.0769323 0.67175573 1.3557339 0.23512506 0.49576023 -0.12142758 0.69895893 0.6232825
0.56723756 -0.044646904 0.6947584 1.3691021 1.3892782 1.147742 0.6844123 1.3633837
0.29489326 -0.5835866 0.6136571 0.4625561 0.16324048 1.7175794 0.9751938 -0.12788884
-0.8946218 0.24171332 -0.76486343 0.35230082 0.83888793 0.6351019 -0.07228129 -0.5437188
0.0049528494 0.25654367 0.31121242 0.30148464 0.62114847 0.8307688 0.60056335 0.12117583
-0.3914747 0.7331261 -0.79029804 -0.09677043 -0.86185175 1.7513299 -0.12651764 -0.60843474
-0.034452796 0.763024 -0.33711132 0.073237136 0.07249566 0.25065637 0.7469881 0.4169973
00000000: 40e9 b03f 9ac1 ac3e 51e0 403f 9872 cc3e
00000010: 090a 873e 0b87 2a3e ce55 593f 829b 7f3e
00000020: bfcb f73f f1aa 243f 9a88 5e3f fa22 b03e
00000030: c1ce 183f ec9a 353f 2bc7 543f 88c5 b5be
00000040: a227 9b3f b75c dc3e 1b91 4bbf e05f a9be
00000050: f11c e73e e898 063e 7f9f 333f 9ffa 643d
00000060: 8d9c 4f3f 82da 9cbe 48c0 083f cc49 9d3e
00000070: fc87 c8bd b23b 1f3d 9c17 c1be 0430 6fbe
00000080: 7fcc 09bf 568a 6b3e b9ac 713f 56cf ce3e
00000090: c3a2 cdbd 7572 643e 2ee8 233f 5a1c 6fbe
000000a0: bec8 633f 7336 30be 0fef 643e 2feb b53e
000000b0: 46bf 12be 1245 59bd 9c75 963e 576b 9d3d
000000c0: 50f5 3dc0 2828 153f 0e34 4bbf 9186 50bf
000000d0: 9702 09bf 086b 253d 1ea8 9dbe 2cd0 513e
000000e0: fb87 5cc0 d96d acbe 409d aabf 0a1b 86bf
000000f0: d166 5c3e f37c 55be 2449 d9bc d538 df3e
00000100: 61b2 8cc0 0920 25bf 259c d0bf c878 b53e
00000110: 4470 013f 2ca5 8e3d c5d5 fe3d cb28 a6bd
00000120: 75ba 943e 7678 a33d 6980 82bf a98a 903e
00000130: d8a4 963e 188f 39bf daed 75bf 82c7 2dbe
00000140: 29d6 b23c 4abb dabd 48be 4dbe e5f4 ac3e
00000150: e94c 21bf 6ccb b0be 85a3 503f 0b0c 083f
00000160: 0f0d 443e 2092 08be bd0a 96be 1376 433f
00000170: 74b5 953f 5c42 c23e 9f3f 4fbe 7ddc 45bf
00000180: e2bd 0d3e bb0d 213f b350 80bf ad37 5ebf
00000190: abc9 0dbe 10e5 3ebf 0072 e93e 98e0 133f
000001a0: 4457 22be ecef fd3e 8385 453f ded3 443f
000001b0: 918e a33f 629c 463f 6486 2c3f 93c8 1a3f
000001c0: 216e 173e ddc3 06be 4d08 0b3e c809 d03e
000001d0: c924 21bf 44d9 d73d 4b39 e8bd af45 1a3f
000001e0: 6318 163d 2fff 213e 2c20 3bbf c1ec 2bbe
000001f0: 8a26 323e 1ebb 44be 7be7 47be 0b93 093f
00000200: b9ce f73e a6cd 55bd 642b b03f 5905 203f
00000210: 9db3 833f 093d 7b3f 6f55 7e3f 7f22 ba3f
00000220: 46db 8d3f c017 28be 09d0 b73e d827 163e
00000230: 23fb 623f 3cca 3a3f 4426 603f f1e8 c23f
00000240: d502 21be 3c2b 833f 48d8 863c 3421 5e3b
00000250: 8e6f 6a3f 1c31 0640 f9c8 5c3f d870 833d
00000260: ba53 4dbf aa7d 813e 5a79 c73e f7db 743f
00000270: 5eb2 163f d2d5 8a3f 569b 9f3f dd6d 3d3f
00000280: 38f2 dc3d d967 d1bf 7b47 93bd 8a83 593f
00000290: 2fde 18bf 9f2e 853f c8be 403e c5fa 303f
000002a0: 6ae3 253e da6c 503d 9600 bfbe 1b48 25bf
000002b0: 57fe 703e bd1b 8ebf 27d7 333f bc7f 97bf
000002c0: 58f5 913e f7d4 303f 1ce6 15bf 560c 213d
000002d0: 318f 093d 7706 0ebe 6d42 1a3f bfc0 f03e
000002e0: 642e 043f 7b82 b2be c19e 013f 497d 6a3f
000002f0: 301f 92be 3773 643f e62b 983e a36f 1f3f
00000300: 9b49 54bd 8ac8 823c a5df 6dbf 1676 22bd
00000310: 67d9 bfbf 42fd 5cbf 836f 663f 7f48 8fbf
00000320: ebd8 89bf 2ff8 2b3f b088 ad3f a0c4 703e
00000330: 49d4 fd3e 06af f8bd f9ee 323f 718f 1f3f
00000340: 7b36 113f acdf 36bd b0db 313f bd3e af3f
00000350: ded3 b13f 36e9 923f a535 2f3f 5b83 ae3f
00000360: 40fc 963e ee65 15bf a218 1d3f 27d4 ec3e
00000370: 8328 273e a4d9 db3f 4da6 793f 4bf5 02be
00000380: ef05 65bf b283 773e 17ce 43bf c660 b43e
00000390: 5cc1 563f 0a96 223f 3708 94bd 2831 0bbf
000003a0: 834b a23b b159 833e 3c57 9f3e 325c 9a3e
000003b0: 9603 1f3f 44ad 543f 85be 193f 092b f83d
000003c0: 5f6f c8be 27ae 3b3f f950 4abf 932f c6bd
000003d0: 51a2 5cbf 942b e03f d78d 01be 61c2 1bbf
000003e0: 601e 0dbd 8a55 433f db99 acbe 5afd 953d
000003f0: 9b78 943d 0856 803e 9d3a 3f3f ac80 d53e
