odm/firmware/water_check.tflite (tflite, 12852 bytes, 17 tensors)

Const_12 f4 [16]
000000 8a 75 ab bf 70 d4 41 bf 3e 7c 2b 3e 42 ea bd 3e
       -1.3395245 -0.7571478 0.16746613 0.37092787
000010 a8 f1 4a 3d 0a 12 93 3f de 2d db bf d6 6e a9 3f
       0.049546868 1.148988 -1.7123373 1.323695
000020 88 5a 7e bf f3 44 02 bf 64 f9 9b bf e3 84 23 3f
       -0.9935689 -0.5088646 -1.2185483 0.63874644
000030 c7 e1 13 3f aa af 6d bf 9b 33 ce 3f 2f 7e 9e 3f
       0.57766384 -0.9284617 1.6109499 1.2382258

Const_16 f4 [16]
000000 e0 31 ad 3e c0 46 db 3c ca fa d8 3e c8 9f ab bd
       0.33827114 0.026767135 0.42378837 -0.08380085
000010 7e 9a 6a 3e dc 35 97 be 11 52 e2 3e b7 26 df 3f
       0.22910497 -0.2953328 0.44203237 1.743369
000020 ee 7e 4e 3f ea 75 c9 3e 35 6e 14 c0 3c 91 74 3e
       0.8066243 0.39347774 -2.3192265 0.23883528
000030 50 17 a4 3d 78 4a 1d 40 7c 61 7d 3f 02 a3 e3 3f
       0.08012259 2.4576702 0.98976874 1.7784121

Const_20 f4 [16]
000000 4a 4d ba 3f 55 6e da 40 a6 f7 ba 3f 54 22 2e 41
       1.4554837 6.8259683 1.4606826 10.883381
000010 1f 8a 16 41 72 06 66 41 0f 99 a1 40 50 d7 0d bd
       9.408721 14.376574 5.049934 -0.034629166
000020 08 e0 0d 41 d8 a6 09 c0 39 2f d4 3f 71 f7 b6 3f
       8.867195 -2.1508083 1.6576911 1.4294263
000030 58 04 be 3f 04 57 9e 40 ee 06 d6 3f 62 b3 b2 3f
       1.4845076 4.948122 1.6720865 1.3960993

Const_23 f4 [3]
000000 dd 81 0d 3d 31 57 b3 be 58 3e a5 bf
       0.034547675 -0.3502746 -1.2909651

Const_8 f4 [16]
000000 8a 75 0d 40 05 93 c5 3f d2 87 03 40 ab 06 0c c0
       2.210299 1.5435492 2.0551648 -2.187907
000010 b6 6d d7 3f 52 2f 32 40 a8 b7 01 c0 3c fe b6 3f
       1.6830356 2.7841382 -2.0268345 1.4296336
000020 dd e2 24 40 4a 01 0a c0 53 cf e0 3f ca 78 03 40
       2.5763466 -2.1563287 1.756327 2.0542474
000030 a8 e7 83 3f 01 90 0e c0 7c 9b c7 3f 02 61 02 40
       1.0305071 -2.2275393 1.5594325 2.037171

MatMul f4 [3, 16]
000000 dd 3d b6 3f 26 e4 96 3f 53 1d 82 bf 97 ea bc 3f
       1.4237629 1.1788375 -1.0165199 1.4759091
000010 47 ee c0 3f 3b ee ab 3f b5 87 e9 3f 82 42 8a 3f
       1.5072716 1.3432077 1.824454 1.0801547
000020 36 e6 77 3f 68 55 f4 3f 19 c9 80 bf 45 fd a2 bf
       0.9683565 1.9088564 -1.006137 -1.2733542
000030 7e ef 5c bf 3e c2 9b 3f e3 29 e3 be 59 4a 5c bf
       -0.86302936 1.2168653 -0.44367895 -0.86050946
000040 b3 0b d7 bf b9 b5 8d bf b4 d5 9a 3f e3 c0 c4 bf
       -1.6800445 -1.1071082 1.2096467 -1.5371364
000050 99 b2 d9 bf 6e c1 bb bf f8 81 0a c0 79 5f 8f bf
       -1.7007629 -1.4668405 -2.1641827 -1.1201011
000060 bb 10 9a bf 36 22 f7 bf bc 89 87 3f 3b a4 91 3f
       -1.2036356 -1.9307315 1.0588908 1.1378244
000070 af bf 98 3f 30 9c c0 bf f7 f5 8e 3f 1f ae 87 3f
       1.1933497 -1.5047665 1.1168813 1.0600013
000080 91 77 27 bf 0f e4 78 bf bb b4 7e bf f9 66 76 bf
       -0.6541682 -0.9722299 -0.9949452 -0.96250874
000090 f1 e8 3f bf cd 90 6a bf fd d7 91 bf 1b dd a1 bf
       -0.74964815 -0.916272 -1.1394039 -1.2645601
0000a0 4f 30 87 bf 04 1e bb bf a6 cf 98 bf 1e 11 51 bf
       -1.0561618 -1.4618535 -1.1938369 -0.81666744
0000b0 36 44 90 bf af 9e 41 bf bb 90 9c bf 26 1b 72 bf
       -1.1270816 -0.75632757 -1.2231668 -0.94572675

convolution f4 [1, 3, 3, 1]
000000 b4 ce 11 3d 64 dd 30 be 4a 71 1c 3e 29 d6 0b be
       0.035597518 -0.17271954 0.15277591 -0.13655914
000010 03 ff 9f 3e 4a db 2c bf c6 df e8 3c ca d3 3b be
       0.31249246 -0.6752211 0.028427016 -0.1834251
000020 e5 ea 09 3e
       0.13468511

convolution_1 f4 [16, 1, 1, 1]
000000 9b 3a 84 c0 41 c3 66 c0 b6 1e 43 c0 86 eb 8a 40
       -4.132154 -3.6056674 -3.0487494 4.3412504
000010 e6 7f 77 c0 33 93 85 c0 c2 c5 8e 40 71 54 81 c0
       -3.8671813 -4.1742187 4.4616404 -4.041558
000020 6c 5a 17 c0 83 db 83 40 59 a7 68 c0 68 ec 7b c0
       -2.364894 4.120546 -3.635214 -3.936304
000030 25 08 5a c0 ad b4 8c 40 30 f5 6d c0 23 9e 8b c0
       -3.406747 4.397055 -3.71809 -4.363054

depthwise f4 [1, 3, 3, 16]
000000 28 01 ac bd 53 f0 df be f9 ae a5 be 93 8e 9a 3e
       -0.08398658 -0.4373804 -0.32360056 0.301869
000010 97 90 16 3e 16 df 8e 3e dd 74 75 3e 3a 94 5a 3c
       0.14703594 0.27904576 0.23970361 0.013341004
000020 60 9f 21 bd 3f 6d 37 bd 10 86 7a 3d 26 cf 04 3e
       -0.039458632 -0.04478192 0.06116301 0.12969646
000030 36 4d b6 3d 0b 43 78 be d6 63 88 bd 85 e7 77 be
       0.089014456 -0.24244325 -0.06659667 -0.24209411
000040 4b 8b f2 3e 90 c0 d5 bb 50 da b4 bd 5b 72 80 3e
       0.47371897 -0.0065231994 -0.08830702 0.25087246
000050 e6 8d 69 3e e3 fa b8 3e c8 dc 39 3f 18 c1 b2 be
       0.22808036 0.3612891 0.7260251 -0.34912944
000060 04 26 e0 bd c5 0f 5b be f4 a3 d3 bd 7f bd 0c be
       -0.10944751 -0.21392734 -0.10334006 -0.13744162
000070 94 9d f2 bd 35 56 82 3d 5c 96 81 3d a4 36 df 3e
       -0.11846462 0.06364099 0.06327507 0.43596375
000080 af 6b 38 3e b3 58 82 be 5f 44 a9 bd 65 af be bd
       0.18009828 -0.25458297 -0.08264994 -0.093107976
000090 81 a2 97 bd 30 11 c4 bb 73 e1 d8 3d b1 d0 94 3c
       -0.07404042 -0.005983494 0.10589876 0.018165918
0000a0 17 e8 d4 3d 5c 64 ce 3c d2 e8 89 3e 17 97 00 be
       0.1039583 0.02519434 0.2693544 -0.12557636
0000b0 7a d3 3e be 8c 32 ec bd 46 c1 55 be ac 1b ba 3d
       -0.1863536 -0.115330786 -0.20874509 0.09087309
0000c0 3d b4 0e 3e 11 bc 0f 3e 57 f0 96 bd 48 44 78 be
       0.13935943 0.14036585 -0.0737006 -0.24244797
0000d0 a3 da b3 3d 27 b2 86 3d be 33 6a be c3 e0 dd bd
       0.08781936 0.065769486 -0.228713 -0.108338855
0000e0 0b 70 25 be ce af c3 be 1a de d3 3e 5e 5f 31 be
       -0.16156022 -0.38220066 0.41380388 -0.17321536
0000f0 a0 78 a0 3e 3c d2 3b be b2 69 f3 be 29 20 30 be
       0.3134203 -0.18341917 -0.47541577 -0.17199768
000100 64 db 36 3e 8c 07 1f 3c 0d 30 25 3f be 1d 1e bf
       0.17857128 0.009706389 0.64526445 -0.6176413
000110 de 18 7e 3e 10 28 30 3f 18 62 e2 3e 12 5d 1c bf
       0.24814174 0.6881113 0.44215465 -0.61079514
000120 cd 85 86 3d 51 ad 5d 3e 26 4d 58 3d c6 2e e6 be
       0.06568489 0.21648146 0.05280795 -0.4495756
000130 f9 c8 af 3e e2 d4 00 bf 7d de c1 bd b1 94 84 3e
       0.34333017 -0.50324833 -0.094662644 0.25894693
000140 90 1f 83 3e 53 fa 36 be 21 91 12 3d 7b 5f 93 bd
       0.25610018 -0.17868929 0.035782937 -0.07195946
000150 c5 14 bb 3e d4 2d 8a 3e a3 ce 8e 3d 04 4d 47 3e
       0.36539283 0.2698809 0.069730066 0.19462973
000160 97 de f7 3e 7c 18 00 bf 0d 28 f0 3d 55 d8 6f 3e
       0.4841201 -0.5003736 0.11726389 0.23422368
000170 fc b1 49 bc 95 8c bd bd 98 48 c2 bd 79 69 90 3e
       -0.012310501 -0.092553295 -0.094865024 0.2820547
000180 ee 52 7f 3d cb 8b 46 3d 67 0a 47 3c df 3f 17 be
       0.062334947 0.04847316 0.012148476 -0.14770459
000190 6e 43 38 be 1a f6 b3 bd e4 46 19 3e 03 a6 90 be
       -0.17994472 -0.087871745 0.14968449 -0.28251657
0001a0 e3 ec a4 be e6 e0 7f bd 17 36 a6 bd 83 b0 c2 3e
       -0.3221198 -0.06247034 -0.081157856 0.38025293
0001b0 7d 27 13 be 97 e1 7a 3e da d9 2a 3d 37 6a 34 be
       -0.14370532 0.24500118 0.041711666 -0.17618643
0001c0 6c 93 82 3e 84 90 a7 be c0 86 16 3e 95 59 dd bd
       0.255031 -0.32727444 0.1469984 -0.10808102
0001d0 cc f5 2d 3e 82 15 06 3e de c0 f6 3d f0 dc 90 3e
       0.16988295 0.13094142 0.12048505 0.28293562
0001e0 3e 12 2a 3e e1 22 9d be 00 82 48 bd bc ae 4c be
       0.16608521 -0.30690673 -0.048952103 -0.19988531
0001f0 7b 65 b4 3e 2f e2 bf 3d 5f 9e 16 bd 81 c2 ca 3e
       0.35233673 0.09369313 -0.03677213 0.3960152
000200 e4 41 61 3d 1f 7c 25 be f1 a3 86 be 14 85 d6 bd
       0.05499448 -0.1616063 -0.26296952 -0.104746014
000210 5e af ad be 5e fe 8d bc 35 d2 67 3c 61 a2 5e bd
       -0.33922857 -0.017333206 0.014149238 -0.054354075
000220 d7 19 49 3e 89 3f a5 3d 31 89 f4 3d 2d 37 3f 3e
       0.19638763 0.08068759 0.1194023 0.18673392
000230 a5 de 68 be a5 1c 85 bd 67 db cc be 13 5d 64 bd
       -0.22741182 -0.06499604 -0.4001114 -0.055752825

convolution_2 f4 [16, 1, 1, 16]
000000 b1 db f8 3e 33 8f aa 3e b9 78 1b 3e 86 2a 2d be
       0.4860511 0.33312377 0.15182771 -0.16910753
000010 b8 fa cd be 00 8a dc 3e e7 14 05 3f 0b a4 09 3f
       -0.40230346 0.43074036 0.5198502 0.53765935
000020 d5 cb 1a 3f ee a4 8c 3e 6f 73 d7 3d db 6c 6b be
       0.60467273 0.2746958 0.10520064 -0.22990744
000030 29 9b f9 be 97 86 27 bf aa bc 38 3f c2 7e 80 bf
       -0.4875119 -0.6543974 0.7216288 -1.0038683
000040 a2 e4 50 be 1e 6a 39 3e b0 17 e4 3e 1a 83 12 3f
       -0.20399716 0.18106887 0.44549322 0.57231295
000050 e6 f9 6e be eb 87 ad 3e 84 03 e0 bd 03 ba 06 bd
       -0.23337516 0.3389276 -0.109381706 -0.03289224
000060 1a 76 2d 3f 10 3e 35 bd 0c b7 c4 bb bc fb e2 be
       0.67758334 -0.04424864 -0.006003266 -0.44332683
000070 16 13 89 3d 3b ac cb 3e dc 76 05 3f d2 28 a1 be
       0.066930935 0.3977984 0.5213449 -0.31476456
000080 d9 51 14 3d c5 01 4d bd e5 ed 0d 3d 42 4f 84 3e
       0.03621087 -0.050050516 0.034650702 0.2584172
000090 8a fe c1 be 2b ab 04 3e f4 69 f2 be 90 7c 1b 3e
       -0.3788951 0.1295592 -0.4734646 0.15184236
0000a0 6c 70 1c be a5 fd d6 3e 13 2d 15 3c 68 98 d4 be
       -0.1527726 0.4199039 0.009104985 -0.41522527
0000b0 0e c9 4f be 60 6d 76 3e d7 dc 10 be 13 01 de bd
       -0.2029154 0.24065161 -0.14146744 -0.10840049
0000c0 00 c6 48 bf 3b fd ce 3e c0 4f 3b bf b3 2e 81 3f
       -0.78427124 0.40427575 -0.73168564 1.0092376
0000d0 09 a7 2c be 43 cb 88 bd f1 b8 ae be 6e 42 60 be
       -0.16860594 -0.06679394 -0.34125474 -0.21900341
0000e0 38 05 f1 3d 34 9e 2e bf 33 75 80 3f e0 2d 62 3e
       0.117685735 -0.6821015 1.0035766 0.22087812
0000f0 dc 5b 09 3f b8 e0 a3 bd 1e 73 36 3f 26 99 50 3f
       0.5365579 -0.08001846 0.71269405 0.81483686
000100 4d 80 73 be 74 1c b9 bb 50 ba f6 3d 15 7b 4b be
       -0.23779412 -0.005649144 0.12047255 -0.19871171
000110 72 aa 34 bd ca 99 57 3e 33 a2 8f 3e 0a 79 b5 3e
       -0.04410786 0.2105476 0.28053436 0.35443908
000120 ef c8 59 be 2b 49 93 3e ef b0 28 be 5d ff 3a 3e
       -0.21268056 0.2876676 -0.16473745 0.18261476
000130 0e ab 8f 3d fc 5a 7a be a3 95 55 bd b2 8e 35 bf
       0.07015048 -0.2444877 -0.052144658 -0.7092086
000140 3e d5 d3 be c8 e1 14 3e 3e de 1a be 93 37 9e be
       -0.41373628 0.14539254 -0.15123841 -0.30901775
000150 58 79 bc 3e 6f 44 48 be 97 e8 5b bf 41 5c 18 be
       0.36811328 -0.19557355 -0.8590178 -0.14878942
000160 65 49 c2 be 17 c2 de bd 9f 59 be 3e 02 63 6b be
       -0.3794662 -0.108768634 0.3717775 -0.22986987
000170 f3 02 c0 be 99 4d 76 3e 22 f8 22 3e 51 ba ee 3e
       -0.3750225 0.24053039 0.15914968 0.46626523
000180 ed ef 89 3c 2d ad 07 3f 0f 9e d5 3d 99 45 a0 3d
       0.016838038 0.5299862 0.10430538 0.07825775
000190 c1 a3 f3 bd b4 31 ee 3e 47 57 1e 3d e5 c2 11 3f
       -0.11896468 0.46522295 0.038657453 0.5693801
0001a0 ef e2 84 3f 92 bd 78 be c9 73 36 be 6c 4f 42 be
       1.0381755 -0.24291065 -0.17817606 -0.1897561
0001b0 fb 8e 45 bf 56 e2 45 be 67 02 b7 3e 11 d9 0c 3d
       -0.77171296 -0.19324622 0.3574402 0.0343867
0001c0 66 6b 62 3e cc 05 fd 3e 66 d8 e7 be bb af b8 bd
       0.22111282 0.49418485 -0.45282286 -0.09017893
0001d0 25 3a 12 3f 74 e3 d6 be 94 5b a7 be 3c fa d0 be
       0.5711997 -0.41970408 -0.32687056 -0.40815914
0001e0 59 e6 02 3f ca 65 52 be fd 27 2c 3f 8a 01 5c 3b
       0.5113273 -0.20546642 0.6724852 0.0033570253
0001f0 bb 93 83 3f fb 91 dd be 57 a6 c8 3d ef 51 cb bd
       1.0279459 -0.43275437 0.09797352 -0.09927737
000200 96 04 b9 bd 62 11 0a 3e e5 7b f5 be cb 5b 39 3f
       -0.09034078 0.13483194 -0.47946087 0.7240569
000210 1b 20 a7 be ea 58 19 3f be 86 2e 3e de a0 38 3e
       -0.32641682 0.599013 0.17043588 0.18030116
000220 ad 06 24 be 9b e2 6b 3f 4d d8 c9 3d 74 b1 8d be
       -0.16018172 0.9214265 0.09855709 -0.27674448
000230 44 93 de be 9c 8c b4 be 66 64 f1 3d 88 a0 a4 3e
       -0.4347173 -0.35263526 0.117867276 0.32153726
000240 73 06 a3 3e da 5b 98 be d8 90 94 3e 87 65 2c bf
       0.31840858 -0.29757577 0.29016757 -0.6734242
000250 62 d0 0b be a9 44 81 bd 99 21 c4 3c ef d6 50 3e
       -0.1365371 -0.06311924 0.023941802 0.2039449
000260 f8 43 8e be f3 cf 06 3e 48 86 31 3d 38 95 21 3e
       -0.2778623 0.13165264 0.04334095 0.15779579
000270 53 d7 65 bd dd 64 56 be 7d 1c 25 be 7c 44 a6 3d
       -0.056113552 -0.20936914 -0.16124149 0.08118531
000280 b4 7b 5b 3e 27 cf 03 3e 48 e3 cb be 8a 70 88 be
       0.21433908 0.12871991 -0.3982184 -0.2664836
000290 5a 2c 14 be 9e 20 32 3e 8e f7 83 3e 09 6a 30 3c
       -0.14470044 0.17395255 0.25774807 0.010767468
0002a0 10 c2 6e 3e 3f c0 47 bf 5e 7e 72 bd 95 ea e0 be
       0.23316216 -0.7802772 -0.059202544 -0.43928972
0002b0 69 03 b4 be ff c5 c9 be 92 34 ea 3e 50 22 98 be
       -0.35158852 -0.39408872 0.45743233 -0.29713678
0002c0 f3 96 0a be 01 1e c5 3d a0 4f 9a 3d 87 5f a9 bd
       -0.13534145 0.096248634 0.075347185 -0.082701735
0002d0 39 03 7f bb 44 5e 46 be e9 80 17 3d 5b 7b 00 3e
       -0.0038911833 -0.19371897 0.036988173 0.12547056
0002e0 10 0f a9 bd f8 b9 03 3e 31 e4 c8 bd 8d be be 3d
       -0.08254826 0.1286391 -0.09809149 0.093136884
0002f0 c1 86 b2 3b a3 c4 5b 3f 59 ef 3b 3e a2 a6 2d 3e
       0.005448193 0.8584692 0.18353023 0.16958097
000300 d3 37 3c bf d5 d6 de be 5e 7c 04 bd e1 bc 88 be
       -0.7352268 -0.4352328 -0.03234517 -0.26706603
000310 bf ae 19 3f 2e 99 38 bf af 8c 14 3f ef 58 fb be
       0.60032266 -0.72108734 0.58027166 -0.49091288
000320 ed 6c 57 3e 41 ea 29 3d e6 6f b5 3e 83 a1 9a 3e
       0.21037646 0.041483168 0.35436934 0.3020135
000330 9b 4b cf be 04 2c f8 be 65 b9 19 3c a3 de 1e bc
       -0.4048737 -0.4847108 0.00938258 -0.009696635
000340 33 fe 21 3e b0 96 59 3e 97 df 9f 3e 31 2f c2 3d
       0.15819626 0.21248889 0.31225273 0.09481657
000350 60 53 e9 be ab e5 94 3e 9d 7d d4 bc b2 8f 75 3f
       -0.45571423 0.29081473 -0.025938803 0.95922387
000360 6e be d9 3b fe 05 88 bf 58 32 3e 3e b1 5e 17 3e
       0.0066450154 -1.0626829 0.18573892 0.14782216
000370 ae 14 3c bd 31 8d ef 3e 3c b4 d2 3e a8 82 da be
       -0.04591816 0.46787408 0.41153133 -0.42677808
000380 b0 84 ad be ba 47 03 bf 6c fc 36 3e 2a 83 7a 3e
       -0.33890295 -0.5128132 0.17869729 0.24464098
000390 f2 58 52 3e 9f 5e e3 be 37 5f d1 be 5b 48 9b be
       0.20541742 -0.44408128 -0.40892956 -0.3032864
0003a0 7a 73 ac 3e 4f 1a 81 3e 7c dc 7f 3e 4c df db bd
       0.33681852 0.25215384 0.24986452 -0.1073595
0003b0 14 74 c0 be b2 15 24 be b2 d6 4a 3d df c1 92 be
       -0.3758856 -0.16023901 0.049521156 -0.28663537
0003c0 f9 25 fb 3e 02 3f bf 3e da a5 90 bf 7a 6e 06 bf
       0.49052408 0.3735276 -1.1300614 -0.52512324
0003d0 c0 40 93 bd e4 1c a4 be b1 ba 29 3c f0 05 2c 3c
       -0.071900845 -0.32053292 0.010359452 0.0104994625
0003e0 52 ca 18 bf 74 e4 6a 3e 9d f0 86 3d 11 85 2e 3f
       -0.59683716 0.2293871 0.06588862 0.68171793
0003f0 6b d1 e0 3e bd 61 fc 3d ed 60 e7 be f8 0b 14 3f
       0.43909773 0.123233296 -0.45191136 0.5783076

depthwise_1 f4 [1, 3, 3, 16]
000000 1f dc 01 3d 84 e9 99 3d f5 4c ba be 14 c3 08 be
       0.031704064 0.07515243 -0.3638684 -0.13355666
000010 9e f8 b6 3e 27 76 5a 3e 54 65 10 be f1 6c 8b 3d
       0.35736555 0.21334134 -0.14101154 0.06807888
000020 94 e8 94 3e 87 9c 32 3c a1 85 9f 3e dd ff e5 3e
       0.29083693 0.010901577 0.31156638 0.4492177
000030 a3 e2 0b bd 1a 7b 08 bc 11 a3 8d 3e 9f 5b 9c 3d
       -0.034151684 -0.008330131 0.27663472 0.07634663
000040 60 3c 15 3e dd b5 70 3e 45 eb 81 be ad 2a 62 be
       0.14573812 0.23506875 -0.2537481 -0.22086592
000050 45 cc 91 3d 72 ef 0b 3f 59 53 cf bd 9b 44 84 3d
       0.071190394 0.5466224 -0.10123319 0.06458398
000060 99 51 9f 3e 81 47 9b 3c 58 50 ac 3e b8 41 c1 3d
       0.31116942 0.018954994 0.33655047 0.09436363
000070 4f 13 b8 3d 5d ff d6 3e 3d 36 ae be d2 19 c4 3d
       0.08988058 0.41991702 -0.34025756 0.09575237
000080 e2 f5 a4 bc cc 34 34 3e ac bb c3 be 27 e3 31 bd
       -0.020136777 0.17598265 -0.3822912 -0.04342952
000090 0e da 60 3e f1 2b 63 3d fd 85 ec be 53 74 b9 ba
       0.21958181 0.055461828 -0.46195975 -0.0014149047
0000a0 99 98 5b 3e 69 17 ba 3d 69 2f c9 3d d3 9b d3 3e
       0.2144493 0.090864964 0.09823496 0.41329822
0000b0 42 9f a9 3b 83 28 81 3e 27 1d 3c 3e e2 91 a0 3d
       0.0051764557 0.2522622 0.18370496 0.07840325
0000c0 80 a9 fa be af 16 63 3e bb 9a d7 bd 47 d3 12 be
       -0.48957443 0.22176622 -0.10527559 -0.14338408
0000d0 24 43 05 3f e8 02 aa 3e 6c 69 f8 bd 8f f2 41 be
       0.52055573 0.33205342 -0.121294826 -0.18940185
0000e0 d2 ff 22 3e c9 88 0a be f7 8a 10 3f 35 a7 a9 3d
       0.159179 -0.13528742 0.56462044 0.08283845
0000f0 52 0b cb 3e 04 ed 3e 3e 87 4e d0 be 33 fc 41 3e
       0.39657074 0.18645102 -0.40684912 0.18943863
000100 c4 72 1f bf 3f 53 c5 3d 6e 7f d8 bd f7 fd c5 be
       -0.62284493 0.096350186 -0.1057118 -0.38670322
000110 80 12 02 bd 62 cf 2c be 3b 98 98 3d 25 1b 53 be
       -0.031755924 -0.16875985 0.07450911 -0.20615824
000120 bb ed 5a 3e 5d 03 0a bf 88 59 ff 3e c7 e3 8a 3e
       0.2137975 -0.5391138 0.49872994 0.27126905
000130 0a 89 04 3f 93 72 1c 3f d0 45 24 bf 07 5e 3b 3e
       0.51771605 0.61112326 -0.64169025 0.18297587
000140 c3 14 15 bf f6 5c 85 3e 87 c1 48 bf 05 45 82 bd
       -0.58234805 0.26047486 -0.784203 -0.06360821
000150 33 ae 07 3e f9 3b 9c 3e 78 31 9e be 5c 4c 82 be
       0.13250045 0.30514506 -0.30897117 -0.25448883
000160 bc 98 11 3e 76 f4 b2 3e 81 85 3a 3c 63 a3 cc 3e
       0.1421842 0.34952134 0.011384369 0.39968404
000170 41 09 dc 3e 78 d6 49 3e e1 97 d6 be ac 61 f5 3d
       0.4297581 0.1971072 -0.4191275 0.1198152
000180 cd ab df bc ad 6e 2c 3d ef 8f 01 be cc 4e 2b be
       -0.0273036 0.042097736 -0.12652563 -0.16729277
000190 bf 7e d3 3e 35 9b 5e 3e 22 5a 21 3d 0a b7 1f bc
       0.41307637 0.21738894 0.039392598 -0.00974823
0001a0 a5 a0 c3 3d 90 78 aa bd 6d 8c a9 bd 29 db 5e be
       0.09552125 -0.08323777 -0.08278737 -0.2176329
0001b0 ea b2 c5 3d 8e 0e 06 be 4f 28 1d 3e f1 11 dd 3d
       0.09653266 -0.1309149 0.15347408 0.10794438
0001c0 b5 ac 2d be 1b 54 da 3e 1f fd 7b be e0 88 31 bf
       -0.16960414 0.42642292 -0.24608277 -0.6934948
0001d0 a3 86 14 3d 9e 8c 20 3c f9 d1 1f 3e 44 21 1e be
       0.036261212 0.009799151 0.15607442 -0.15442377
0001e0 cc ec d6 3d 65 f1 a5 3d 21 e4 14 3e d9 47 f0 3d
       0.10494384 0.08102683 0.1454015 0.11732454
0001f0 89 46 a1 3e b9 dc 66 be 81 7c f2 bd 11 8f 2e 3e
       0.31499127 -0.22545137 -0.118401535 0.17046763
000200 c6 11 87 be a2 31 6e 3d 96 6f 82 be 09 03 c3 be
       -0.26380748 0.058152802 -0.25475758 -0.38088253
000210 97 6c b7 3d f0 ee 0a 3e 73 71 78 be 3c ea e8 bd
       0.08956259 0.1356771 -0.24262027 -0.11372802
000220 32 94 86 3d e7 cb 9b 3e 62 0b 33 bc 76 7c 14 be
       0.06571235 0.30429003 -0.010928007 -0.14500603
000230 1c 6d 4b 3e 04 24 72 bd 9b fd 29 3e 6e cc 80 3d
       0.1986584 -0.05911638 0.16600649 0.06288992

convolution_3 f4 [16, 1, 1, 16]
000000 76 1d 15 bd d2 74 b5 3d c3 31 dc bd dd a2 dc be
       -0.03640505 0.08860172 -0.10751679 -0.43093005
000010 2f 66 62 bd ae 16 66 3f 2b dc 49 3e 97 ce 4e be
       -0.05527323 0.89878356 0.19712894 -0.20195995
000020 39 e6 85 be 5c fd 4c be 10 24 01 bf 18 4e 38 be
       -0.26152208 -0.20018524 -0.5044565 -0.1799854
000030 22 89 f8 3d c5 19 27 3d ed 46 9f bb 03 0b b3 3c
       0.12135531 0.04079606 -0.00486075 0.021855837
000040 48 1e a7 be c5 e8 2b be b2 08 82 3e 8e 95 aa be
       -0.3264029 -0.16788013 0.2539726 -0.33317226
000050 c4 3e 4f be dd a0 98 3e 96 61 27 be ac a9 63 bd
       -0.20238787 0.2981023 -0.1634582 -0.055581734
000060 04 41 df bc b3 5e 3d be f9 89 f3 be fe 6b f2 bc
       -0.027252682 -0.18493156 -0.47566202 -0.02959251
000070 e9 2f 03 bf c6 b7 cd 3e f6 5e 49 3d e6 b5 b1 bd
       -0.5124498 0.4017927 0.049162827 -0.086772725
000080 42 77 74 be 40 d8 3d 3d 0a 48 1d 3e 51 bf 1a bf
       -0.23873618 0.04634881 0.15359512 -0.60448176
000090 d7 bb 89 be ec 68 bc 3e fb e6 17 3f 99 53 40 be
       -0.26901123 0.367988 0.59336823 -0.1878189
0000a0 c3 f1 f4 bd 73 e7 a2 bd 56 fc 87 bb 20 3a 04 bd
       -0.11960175 -0.07954302 -0.004149954 -0.032281995
0000b0 f2 9b 37 bf 0b f3 14 bd f6 21 9a bc e3 36 be be
       -0.7172233 -0.036364596 -0.018815022 -0.3715125
0000c0 34 70 01 be 9a 74 f0 be 5f 32 0c 3f fb f7 23 3d
       -0.12640458 -0.4696396 0.5476436 0.040031414
0000d0 27 f8 68 3d f0 d6 7c bf 9b a8 55 be d1 e2 3b be
       0.05687728 -0.9876547 -0.20865099 -0.18348242
0000e0 00 9e 97 bc 8d b2 21 3c e9 14 d9 3d d2 de f3 3e
       -0.018507957 0.00986923 0.105996914 0.47630936
0000f0 e5 40 c4 be 23 23 2d 3f 08 8a b0 bd ab a8 88 be
       -0.3833076 0.6763174 -0.08620077 -0.26691183
000100 ca f7 83 be e9 77 38 be 66 4f f0 3c 74 a8 55 bc
       -0.25774986 -0.18014492 0.029334735 -0.013040651
000110 90 09 71 3b 2a f7 67 bd e1 97 de 3e d3 91 2c b8
       0.0036779381 -0.0566322 0.4347525 -4.1143805e-05
000120 51 41 50 bf ec 30 a4 be 7f 54 64 bd 16 c3 09 3f
       -0.81349665 -0.32068574 -0.055744644 0.538133
000130 fe 4a 2f be d5 20 a4 bc f1 06 f0 be 9a 99 80 bc
       -0.17118451 -0.020035187 -0.46880296 -0.015698243
000140 08 5a 08 bf e3 01 87 be 9d e8 0b bf 89 5f 3e be
       -0.53262377 -0.26368627 -0.54651815 -0.18591131
000150 0b 47 cf 3e c2 bb 6a bf e3 8b 28 be 5c ee f0 be
       0.4048389 -0.91692746 -0.16459613 -0.47056854
000160 2d fc 46 3e 68 56 70 bd 9c 1f 2e be 89 9d e0 3e
       0.19432135 -0.058676153 -0.17004246 0.4387019
000170 1e ed 6f bf 54 0f 5b 3c e6 54 86 3d 6f d3 e8 be
       -0.9372119 0.013370354 0.06559162 -0.4547381
000180 3e f3 43 3f a6 aa 46 3f 22 d5 a4 be d2 71 0b 3f
       0.76543033 0.7760414 -0.32193857 0.5447055
000190 2d 68 82 3e 3e c6 04 bd 55 bf f2 bd 9a 24 92 3e
       0.25470105 -0.03241562 -0.118529 0.2854355
0001a0 ba 5c c2 bd 95 dc 8e be e9 35 57 3d 04 b0 59 be
       -0.094903424 -0.27902666 0.052541647 -0.21258551
0001b0 fa 58 94 3e be 8d 26 bf 4d 88 65 3e 3d 20 4d 3e
       0.28974134 -0.6506003 0.22415276 0.20031829
0001c0 4f 3b 88 3e 8d 32 0a bf 61 a3 9e 3f 44 4e 3d bf
       0.2660775 -0.53983384 1.2393609 -0.7394755
0001d0 86 40 96 3e b6 11 6c bf ad 56 41 3e 7f b4 5b 3d
       0.29346102 -0.92214525 0.1888072 0.05363893
0001e0 b1 f8 6d be 8d 0c a5 3e 4b d0 93 bd 68 02 b7 3e
       -0.232394 0.32236138 -0.07217463 0.35744023
0001f0 aa 17 8b 3e 3d bb a1 be 0b 1b 9c 3f 9e c8 b3 be
       0.27166492 -0.31588164 1.2195753 -0.35113996
000200 d1 43 f2 bd d1 18 2d bd 04 73 d7 be 06 11 e6 3c
       -0.11829341 -0.042259995 -0.42079937 0.02808429
000210 c9 77 7b bd f3 59 e9 be 92 87 e1 3c 21 bd 11 be
       -0.061393533 -0.45576438 0.027530465 -0.14232303
000220 2d d2 c5 3d e8 e6 1a bd bb 8e 13 bf 8b af 36 3d
       0.096592285 -0.037817866 -0.57639664 0.044601005
000230 02 6d 34 3e 6c 73 17 be 1a c1 54 bc 98 97 a7 3d
       0.17619708 -0.14790124 -0.012985492 0.08183211
000240 af 59 a8 be 2c 37 e6 bb 2c ea a7 3e 73 60 82 3f
       -0.32880923 -0.00702562 0.32795846 1.0185684
000250 a5 57 dc bd 29 0e 07 be 50 68 f1 3d 4d 4e 3f 3e
       -0.10758904 -0.13188995 0.11787474 0.18682213
000260 49 16 ca 3e d1 ee b8 be 72 93 d4 3e 0f aa d4 be
       0.39470127 -0.36119702 0.41518742 -0.41535994
000270 fe 47 f8 be 9a a0 08 3e ee 85 7a be 98 ec 34 bf
       -0.48492426 0.13342515 -0.24465153 -0.70673513
000280 8e c8 01 bf 4a d9 80 3c 86 a4 ad 3f 50 46 cb be
       -0.5069665 0.015728611 1.3565834 -0.39702082
000290 19 a2 c3 3b 68 bf af 3e 4d 75 e0 bd a3 b1 30 bf
       0.0059702513 0.3432572 -0.10959873 -0.6902105
0002a0 ee 2b 06 3f fe 70 19 bf d7 c1 c2 be 4c 22 c5 3f
       0.5241078 -0.5993804 -0.38038513 1.5401092
0002b0 36 53 fb be 65 b6 9f bc 3a 6d 0f 3d 42 37 60 3e
       -0.49086922 -0.019496152 0.035016276 0.21896079
0002c0 a1 4a 1f 3f cd 1c 46 bd 9e 38 0d 3c 36 eb 2c be
       0.6222325 -0.04836731 0.008619456 -0.16886601
0002d0 6e 5b 9a 3d 82 4c 1b 3d bf d3 45 3d f1 74 89 bd
       0.0753697 0.03791476 0.04829764 -0.06711758
0002e0 1f 9a 34 3d bb 41 95 3d c0 29 1b 3c d9 f6 05 3e
       0.044092294 0.07287928 0.009470403 0.13082446
0002f0 bc 99 81 bd 9f 57 3b be a4 02 90 3c 41 e4 eb bc
       -0.06328151 -0.18295144 0.017579384 -0.028795363
000300 90 90 8a 3d 42 d3 8c 3c b1 d6 57 be 30 62 c8 3d
       0.06765854 0.01719058 -0.21077992 0.09784353
000310 a7 03 d2 be 09 17 27 3f 42 a2 a0 3d 48 29 ea be
       -0.41018412 0.65269524 0.07843448 -0.4573462
000320 2b 9c fb bd 0b 14 75 be 09 aa 1b be 84 77 ad 3d
       -0.12285646 -0.23933427 -0.15201582 0.084700614
000330 bf 9b 03 3e 60 07 66 3e ef a8 89 be 58 04 8f bf
       0.12852381 0.22463751 -0.268867 -1.1173201
000340 0c 7b 1d 3e 8e 09 e0 3e 6b 04 aa be 61 a8 a1 3e
       0.1537897 0.4375729 -0.33206496 0.31573775
000350 cb 1c 33 bf 0e 3f 7b be c6 b1 bd 3e d8 36 19 3f
       -0.6996581 -0.24535772 0.37049693 0.5984931
000360 65 4e 00 bf d8 a0 21 bf 4f 89 96 3c 49 ee 3e bf
       -0.5011962 -0.63136053 0.01837602 -0.74582344
000370 30 2a 62 bd 2c e7 ce be 7a e4 33 3f 78 af 01 bd
       -0.055216014 -0.40410745 0.702705 -0.03166148
000380 eb 28 a9 3e 1a cc 2d bd 51 44 07 3e 86 f8 15 be
       0.3303903 -0.042430975 0.13209654 -0.14645585
000390 86 a8 44 3e 08 7a 64 be e6 e7 ce bd be 84 ae bd
       0.19204912 -0.22312176 -0.10102825 -0.08521412
0003a0 9e 25 a0 be 4b cb 3a 3e eb 41 93 be b6 eb af be
       -0.312787 0.18241613 -0.2876123 -0.3435952
0003b0 52 be 42 3e bf d5 2c bf ec ed a0 3c 35 87 f5 3d
       0.19017914 -0.6751365 0.0196447 0.11988679
0003c0 24 d4 b4 be 47 40 48 3e a8 73 0f 3f 59 27 de be
       -0.353181 0.1955577 0.5603585 -0.43389395
0003d0 5f fe 03 bc 2a a1 e3 3e da db 8f 3e 86 c3 1e bd
       -0.008056252 0.44458896 0.2809742 -0.038760684
0003e0 40 53 2f be bf 9e 13 3d 00 4f 9d be c2 ad 07 c0
       -0.17121601 0.036040064 -0.30724335 -2.1199803
0003f0 5f 91 07 bf 22 5d 53 3d 23 78 61 3e df 33 ac be
       -0.52956194 0.05160249 0.22018485 -0.33633325

depthwise_2 f4 [1, 3, 3, 16]
000000 80 af 66 3e ef 2e 11 bd c0 f4 99 bd 3d 40 38 3e
       0.22527885 -0.03544515 -0.075173855 0.17993255
000010 65 26 09 3e e7 d4 5d bd 5e 77 04 3e d4 5b 2f bd
       0.13393553 -0.054158118 0.1293616 -0.042812183
000020 20 80 ab bc f7 36 18 3e e6 a3 1d be 45 9a b1 3e
       -0.020935118 0.14864717 -0.15394554 0.3468801
000030 49 14 e2 be 5f a4 7d bc 74 5d 20 be 14 9f 13 be
       -0.441561 -0.015481084 -0.1566065 -0.14416152
000040 f5 0a 0b 3d 6a 22 e3 3c ae 7b 91 3e 85 12 05 3e
       0.033945996 0.02772637 0.28414673 0.12995346
000050 5b a0 8f be 86 b2 71 3e 55 30 a7 be 75 01 da 3c
       -0.2805203 0.23603258 -0.32654062 0.026612023
000060 67 54 e2 3e 52 9e b9 3e 5c 80 82 be 75 b8 19 3d
       0.4420502 0.362536 -0.25488555 0.037529428
000070 8c 1e 89 bb 80 1f 06 3e a9 9c 8a 3e 85 0c 2a bd
       -0.0041845497 0.13097954 0.27072647 -0.041515846
000080 b1 61 39 be 94 7d 1f 3b 43 9f ac 3e 26 58 42 3c
       -0.18103673 0.0024336325 0.33715257 0.011861837
000090 fa 6d 89 3c 69 21 aa be 73 e7 9c bd a6 c7 3d 3e
       0.016776074 -0.33228615 -0.07661333 0.18533191
0000a0 1e cd 85 3e 15 9f 05 3e f0 1e 7d 3e ea 80 7e 3f
       0.26133054 0.13048966 0.24718833 0.9941546
0000b0 48 5f 04 bc 9d 68 81 3e 85 82 62 3e 7c 95 37 be
       -0.008079357 0.25275126 0.22120102 -0.17928118
0000c0 79 c8 b3 3d 25 4c 39 3f 45 68 10 3e 6b 66 7e 3e
       0.087784715 0.7238181 0.14102276 0.24843757
0000d0 e0 04 93 bb 4b f0 03 3e 4e 46 2c bd bd f0 db bd
       -0.004486665 0.12884633 -0.042059235 -0.107392766
0000e0 42 d8 27 3e 24 c0 b7 3c 9f d8 44 be 66 77 2d 3f
       0.1639109 0.022430487 -0.1922326 0.6776031
0000f0 f4 ba ee be 07 eb d0 3e 1a 9d 35 3e 31 c5 14 be
       -0.4662701 0.40804312 0.1773571 -0.14528348
000100 7e bd 4b bd b2 ea 1c 3f 06 c1 16 3f 0f d4 94 3d
       -0.04974126 0.61295617 0.5888828 0.072670095
000110 80 0f 2a be af f8 ee be 04 71 12 bf c4 5e 58 be
       -0.16607475 -0.46674106 -0.572037 -0.211299
000120 51 da 96 3e fc aa 9c be 24 cf 67 be 5a 82 6f 3e
       0.29463437 -0.305992 -0.22637612 0.23389569
000130 32 bd 75 3d 34 9c bc 3e 99 a9 9f bd 32 c7 60 be
       0.059994884 0.36837924 -0.0779602 -0.21950987
000140 17 7d 92 be d3 e8 2e 3d d7 8b e0 3d 78 12 00 3e
       -0.2861106 0.042702507 0.10964172 0.12507045
000150 c9 bd a1 bc eb a7 96 3b 1b 59 9e 3d d4 4e 39 bc
       -0.019743817 0.004597654 0.07731839 -0.011310298
000160 0e c3 68 3e b7 d9 07 be 93 a3 f7 3e 50 47 2c 3f
       0.22730657 -0.13266645 0.48366985 0.67296314
000170 d5 1f 94 3d fb ac ac 3e d0 ca 6b bd d5 ce 12 3e
       0.07232634 0.33725724 -0.057566464 0.14336713
000180 12 e4 11 be 2d d7 50 3e de d1 b3 be 56 2f a4 3e
       -0.14247158 0.20394583 -0.35121053 0.32067364
000190 d8 49 a3 3e 3e 39 4b 3e 9d 8d 64 3e 94 42 89 be
       0.31892276 0.19846055 0.22319646 -0.26808608
0001a0 61 89 e0 bc 02 d8 2f 3e 45 27 a8 3b c4 44 50 3e
       -0.027409257 0.17172244 0.0051316344 0.20338732
0001b0 ab 92 c6 be 32 1b 21 be 58 6e f8 bc d8 87 4c bd
       -0.38783774 -0.1573303 -0.030326054 -0.04993424
0001c0 22 8f 20 bd 5a d9 19 3f 83 88 e1 3e 19 bc 17 bd
       -0.039199002 0.6009728 0.44049463 -0.03704462
0001d0 b5 08 b7 be 4d b0 9b 3e 38 31 4e be 30 ff 49 be
       -0.3574883 0.30407944 -0.20135963 -0.19726253
0001e0 7d 05 32 3d 61 4c f3 bd e3 84 33 be 15 0b 1e 3d
       0.043462265 -0.118798025 -0.17531161 0.038584787
0001f0 ce 48 f1 bd c0 98 53 3e 8e 53 31 bf 69 1e b5 be
       -0.117814645 0.20663738 -0.6926812 -0.35374764
000200 e3 7d af be ed 0f 10 3f f4 c4 d4 3e ff d7 12 3e
       -0.3427573 0.562743 0.41556513 0.14340208
000210 da bf 23 3e e1 62 48 be 14 89 e4 bd d2 dc 36 3e
       0.15991154 -0.1956897 -0.11158958 0.17857674
000220 44 00 f2 bd 08 0c f6 bd 72 d1 28 bc 61 a4 c3 3e
       -0.11816457 -0.120140135 -0.010303842 0.3821135
000230 b4 4f 2f 3e 70 63 0f 3f 9a fd 1f bf e0 b0 d3 bd
       0.17120248 0.56011105 -0.6249634 -0.103364706

convolution_4 f4 [16, 1, 1, 16]
000000 fd d9 8d c0 b8 5a b8 40 47 c2 c2 40 c0 40 21 bf
       -4.43286 5.761074 6.0862155 -0.62989426
000010 28 59 cc be ae 68 1f c1 ef a5 0f 40 74 df 7f 3f
       -0.3991177 -9.963057 2.2445028 0.9995034
000020 8d f2 07 c0 3c a8 ec c0 82 75 5a c0 48 35 b7 bf
       -2.1241791 -7.3955364 -3.413422 -1.4313135
000030 68 4b b5 c0 3e 95 cb c0 75 f7 ad 3f da 04 52 40
       -5.665455 -6.361968 1.3591143 3.281546
000040 40 2a 78 c0 b1 c6 da be b9 07 38 41 da dd 38 c0
       -3.8775787 -0.42729715 11.501885 -2.8885407
000050 05 60 7f c0 3b a1 10 3e 8a 35 dc 3f ce 9d b7 bf
       -3.9902356 0.14124005 1.7203839 -1.4345033
000060 54 06 c7 c0 9d bc 92 bf 9e 07 81 bc 09 c9 f4 40
       -6.2195225 -1.146381 -0.015750702 7.6495404
000070 5f 73 28 c1 c7 1f cb c0 ac 11 7f 40 3f 06 0c 41
       -10.528167 -6.347629 3.9854536 8.751525
000080 92 bf ac 3f 4c c7 a4 c0 7a 2c fe bf a9 53 2a c0
       1.3495963 -5.149328 -1.9857323 -2.6613562
000090 09 9f 20 40 f0 6d 16 3f 39 f4 c8 be da 52 ac 3f
       2.5097067 0.587615 -0.39248827 1.3462784
0000a0 87 11 5a be 32 fa 7a 3f cf d3 7f 3f 52 4d 68 40
       -0.21295749 0.9803802 0.9993257 3.6297193
0000b0 f2 c8 35 bf 77 9c 1a 40 20 92 c1 bf 83 d1 9b bf
       -0.71009743 2.4157999 -1.5122719 -1.2173313
0000c0 fa cd 0c c0 27 af 17 c0 c2 d5 a3 40 76 49 8f be
       -2.2000718 -2.3700655 5.1198435 -0.27985734
0000d0 1a dd 88 c0 cf 04 90 3f 1c 4f f4 40 04 be 09 3e
       -4.27699 1.1251467 7.634657 0.13451391
0000e0 90 9c b9 c0 8e de b6 3f ca b9 7e bf 41 fd 8f 40
       -5.8003616 1.4286668 -0.9950224 4.499665
0000f0 3a 97 c2 40 f8 7a 9a c0 3f e1 ae 40 d1 93 06 41
       6.0809603 -4.827511 5.464996 8.411088
000100 8f 41 5d c0 f1 69 68 40 db 86 be be 35 12 92 be
       -3.4571264 3.6314662 -0.37212262 -0.28529516
000110 09 ce 0c 40 63 5d c3 c0 38 00 70 40 a5 3f 82 c0
       2.2000754 -6.1051497 3.7500134 -4.070269
000120 b9 1e cd c0 7b 79 b7 c0 5d 96 95 40 2d f9 43 40
       -6.4100003 -5.733579 4.674605 3.0620835
000130 68 70 7d c0 32 2b 01 c0 7c 6b 9f 40 3f 33 8f 40
       -3.9599857 -2.0182614 4.9818707 4.4750056
000140 2d da cd c0 06 81 a1 40 8e ad f2 40 41 b8 6f c0
       -6.432883 5.047 7.583686 -3.745621
000150 c8 b9 a1 c0 2c c5 0a c1 c3 0a ad 40 3b 7b 9d c0
       -5.0539284 -8.673138 5.4075637 -4.921293
000160 35 43 14 c1 b3 21 b7 c0 9a e4 d6 bd 8e fc 5c 40
       -9.266408 -5.7228637 -0.10492821 3.4529147
000170 2a 06 7f c0 00 6b 4b c1 69 1c db 40 cd 27 95 40
       -3.9847512 -12.713623 6.847218 4.6611085
000180 e6 69 94 c0 2b ab 8d 40 00 51 b5 40 46 96 40 3f
       -4.637927 4.4271445 5.6661377 0.752293
000190 1b 0a 86 c0 ea 9a f7 c0 d0 26 41 41 0c 8b f1 be
       -4.1887336 -7.7376604 12.071976 -0.47176397
0001a0 f8 68 cd 3f 07 21 1e c0 4e e1 ae c0 1d 9e a8 c0
       1.6047659 -2.4707658 -5.465003 -5.269301
0001b0 dc 6d cd c0 db a1 92 c0 22 31 44 3e de a0 7c 40
       -6.4196606 -4.5822577 0.19159368 3.9473186
0001c0 27 4a bb bf 5a 02 fd bf 74 22 dd 3f 5d 8f d2 be
       -1.4632004 -1.9766343 1.7276139 -0.41125003
0001d0 7b 53 11 c0 cd e5 09 40 a6 aa 11 40 27 f0 ee 3f
       -2.2707202 2.154651 2.2760406 1.8667039
0001e0 4c 64 98 3f a4 0c bb bd ef 6e b3 c0 a1 b8 48 40
       1.1905608 -0.091332704 -5.6072917 3.1362689
0001f0 09 22 6f 40 73 a0 59 bf 99 a5 26 40 db 55 f3 bd
       3.7364523 -0.8501045 2.6038573 -0.1188161
000200 2c 01 50 c0 48 90 84 3f 11 c9 07 41 88 2c 92 c0
       -3.2500715 1.0356531 8.4865885 -4.567936
000210 b3 3b 01 c1 5f 94 b1 3f 36 b3 0b 40 a3 93 34 c0
       -8.077075 1.3873404 2.1828132 -2.821511
000220 c0 58 0a c1 07 e6 d7 bf 27 fe 13 be 31 f3 b2 40
       -8.6466675 -1.6867074 -0.1445242 5.5921865
000230 59 91 13 c1 f5 79 d3 c0 db 3a db 40 8c 8c 66 40
       -9.222985 -6.6086373 6.8509345 3.6023283
000240 62 eb ba 3d 5c 70 f1 c0 fb 1e 26 c1 3b 74 92 40
       0.09126927 -7.5449657 -10.382564 4.5766883
000250 6b 99 8f c0 ec cf a2 c0 de a5 d5 3f 89 90 ee bd
       -4.487478 -5.087881 1.6691244 -0.11648662
000260 22 aa 5f 40 18 ba fb 3f 7e aa a4 40 aa a4 f9 c0
       3.494759 1.9666166 5.145812 -7.8013506
000270 1f 54 48 c0 91 7b bd 40 17 c2 8d c0 34 23 6f c0
       -3.1301343 5.921334 -4.4299426 -3.7365236
000280 f7 8e ce 3f 10 70 a4 c0 e9 17 fe bf 80 ad 27 c0
       1.613738 -5.1386795 -1.9851047 -2.6199646
000290 fd 01 21 40 26 a5 0d 3f ca 0e 70 be 75 e1 a4 3f
       2.5157464 0.5533012 -0.23443142 1.2881304
0002a0 27 96 22 be 0a 91 65 3f 83 4e 7b 3f 13 94 85 40
       -0.15877591 0.8967444 0.98166674 4.1743255
0002b0 ab 90 20 bf 09 79 14 40 a0 85 d2 bf 80 3b be bf
       -0.62720746 2.3198874 -1.6447029 -1.4861908
0002c0 8f 2a a0 3f 5a 96 a9 c0 42 3c 01 c0 fd 83 28 c0
       1.2512988 -5.2996035 -2.0193028 -2.633056
0002d0 f6 1a 2a 40 2f 8d 0e 3f c3 6c 68 be 45 8c 99 3f
       2.6578956 0.5568418 -0.2269774 1.1995932
0002e0 12 f6 43 be 77 f9 70 3f 1d 35 66 3f b5 64 6f 40
       -0.19136837 0.94130653 0.89924794 3.7405217
0002f0 77 c2 1c bf ee 72 18 40 35 cc 97 bf 0a 5c b0 bf
       -0.6123423 2.3820148 -1.1859194 -1.3778088
000300 46 0d d6 3f c4 4e 94 c0 b8 26 e0 bf f7 2d 1e c0
       1.6722801 -4.634615 -1.7511816 -2.4715555
000310 25 1d 1d 40 6b 47 27 3f 4a c8 a5 be 48 7a 9e 3f
       2.4549038 0.6534335 -0.3237937 1.2381067
000320 cc 1e 5b bd 96 2c 6c 3f 45 19 79 3f 71 56 79 40
       -0.053496167 0.9225553 0.97304183 3.895901
000330 27 28 c9 be 7c db fe 3f 1a 4f d1 bf 89 33 a0 bf
       -0.39288446 1.9910731 -1.6352265 -1.2515727
000340 00 27 41 c0 4a 0b aa 40 81 7e bf 40 0b 9f 6c 3e
       -3.0180054 5.313878 5.9841924 0.23107545
000350 33 c6 fb 3f d9 af 51 c0 23 79 00 3f b0 e5 b1 bf
       1.9669861 -3.276358 0.5018484 -1.389822
000360 77 4b 99 c0 f9 c3 7d c0 6e 6f 9d 40 b9 2a e2 3e
       -4.790462 -3.9650862 4.9198523 0.4417322
000370 c6 f6 6b bf cd a5 b0 c0 d1 95 99 40 dd c5 64 40
       -0.9217342 -5.5202394 4.799538 3.5745766
000380 42 26 c8 3f af 73 a5 c0 cb 25 e5 bf 96 c1 29 c0
       1.5636675 -5.1703715 -1.7902158 -2.6524405
000390 17 e7 20 40 66 96 11 3f 18 32 cc be 12 be be 3f
       2.5141046 0.56870115 -0.39881968 1.4901755
0003a0 09 40 23 be e7 5b 7e 3f 0f 80 85 3f bb 2b 76 40
       -0.15942396 0.9935898 1.0429705 3.846419
0003b0 75 91 3c bf be d0 11 40 6d cb d8 bf 69 9e aa bf
       -0.7365945 2.2783656 -1.6937081 -1.3329593
0003c0 55 de b7 3f 51 5b 96 c0 cd 07 c8 bf 62 43 19 c0
       1.4364725 -4.698647 -1.5627381 -2.3947377
0003d0 54 51 21 40 3a 69 1b 3f 2f d2 a4 be f0 d3 9d 3f
       2.5205889 0.6070744 -0.32191607 1.2330303
0003e0 65 9e 48 be 78 27 72 3f af 3b 6a 3f 5d 4f 68 40
       -0.19591673 0.94591475 0.9149732 3.629844
0003f0 7d 59 eb be ba 3a f7 3f 64 45 b0 bf 6b 12 9b bf
       -0.45966712 1.9314797 -1.3771176 -1.2114996

Add_2;convolution_4;depthwise;Const_10 f4 [16]
000000 6a a4 11 bf 2a 32 57 bd 76 a2 93 3d 0c 29 d8 3e
       -0.568915 -0.052538075 0.07208721 0.42218816
000010 32 ab 02 be 9c 3c 42 3e 32 94 e4 3d df f2 13 3e
       -0.12760618 0.18968433 0.111610785 0.14448117
000020 d8 e6 04 3e 69 3d ae be 55 95 f3 be bb bd 2f be
       0.12978685 -0.34031227 -0.4757487 -0.1716222
000030 65 4a 9f be 2c 6b f6 3d db 9f c1 3d c4 e8 e1 bc
       -0.31111446 0.1203216 0.09454318 -0.027576812

Add_4;convolution_4;depthwise_1;Const_14 f4 [16]
000000 54 03 8c be 23 dd b2 3e 3b b6 8e 3e 7e 92 9f 3d
       -0.2734629 0.3493434 0.27873406 0.07791613
000010 1c 65 11 3e e6 73 0c be e1 74 d0 be 98 d1 9f 3d
       0.14198726 -0.13716087 -0.40714172 0.07803649
000020 14 08 cd ba 9a 1b 4d bc 29 5f 9d 3e 6f 16 97 3e
       -0.0015642666 -0.012518788 0.30736664 0.29509303
000030 78 58 85 3d 5a 1a df 3e 0e 48 9a 3d 17 ec 21 3a
       0.06511015 0.43574792 0.075332746 0.0006176843

Add_6;convolution_4;depthwise_2;Const_18 f4 [16]
000000 b1 8b 7f 3e ae 04 48 be 6d 95 33 3e 8b a3 4d be
       0.24955632 -0.19533035 0.1753747 -0.20081918
000010 d6 29 54 3d 4e fb 00 3e e3 5b ad be 31 b3 b5 3e
       0.05179771 0.12595865 -0.33859167 0.35488275
000020 c7 9a 1e 3e c0 18 67 be bc ed db bd 73 24 85 be
       0.1548873 -0.22568035 -0.107387036 -0.2600437
000030 62 6d 83 3d 04 91 22 3e 73 cf 53 3d 4e bd b4 bc
       0.064173475 0.15875632 0.05171151 -0.022062924
